checkpoint_critic_0.pth (torch_old, 542604 bytes, 5 tensors)

fcs1.weight f4 [400, 33]
00000000: d670 2b3f 24f7 9e3d fd57 21bf d542 a83d
00000010: f555 b33e 0c64 fd3e 1d5f ebbd 64b7 653d
00000020: 3ee7 31bf a824 52bf d48d 253e 6a34 433d
00000030: a519 4abd cf67 c5be c618 f23d 3742 3f3f
00000040: 2305 3e3f 1955 81be 1be4 9cbe 05d2 54bc
00000050: 3589 553e 5160 7c3e 7269 66be ebc7 26be
00000060: 25be 55bd fa2d e9bc 5bc1 e6bd 8ba9 d33f
00000070: b5bf 29bf 585e 03bd 4380 d7bf c2e0 a33c
00000080: fd26 62c0 b775 29bf 13f1 cabe 2bd2 32bf
00000090: b92b a0bf 26fe 033e d044 6b3e 7dc8 c9be
000000a0: de5d dd3d e366 a7bf fa6d 693e e6fc d4be
000000b0: e83b ac3d 64c8 723e 07d3 0e3e 661f f63e
000000c0: 5054 193f 8328 8a3e 529d a1be 2581 f83d
000000d0: ac52 d73e ce59 bfbe 0db7 553e c40a 29bd
000000e0: 50f1 c03e ce8d b93d 8180 a7be 050f 98be
000000f0: 95a5 db3f 6f1f c93e 3104 013d db7d d0bf
00000100: 8243 11bd 4158 943f afd5 593e e383 77be
00000110: 5d47 8d3e fd26 aabd d635 ecbe 80b6 a8be
00000120: 0fa2 1abe 8858 2cbf 7f96 64be 4081 ccbd
00000130: 3b0c a4bd 10a4 9f3d 3cec 9c3d 6564 b3be
00000140: 9290 9c3d c28b 63be 7f7a 27bd e4ea 5a3e
00000150: 34ef 433e 31b4 fb3e 6481 2bbd 439a dbbe
00000160: 8556 813e 57de 94bc ee20 543d 8ebf eabd
00000170: e07b 333f 6567 fe3f 7ee1 483e 140b 42bc
00000180: 14d3 00c0 ba54 b4bc 2558 8ac0 d711 b0be
00000190: 17f2 1fbf 8de1 483f 4322 bdbd b6df b3be
000001a0: b4ce f03e f3b2 4cbf a8eb 1fbe 250b 58bd
000001b0: a083 d63e 3481 68be 2315 a3bd 62be bd3d
000001c0: 2ee2 5bbe 3fac 643e cb04 9bbf 8475 e73d
000001d0: c5dc 9bbd e53c 73be 1983 a3bd 8f37 99bd
000001e0: 4a0e b13d 9ce0 663a 69e3 37bd 2a3a 743e
000001f0: a8a4 c1be 68d4 8abe 1c1e d23f 7b40 393f
00000200: fa24 00bd 709b d8bf a04b 883a 050a 5a40
00000210: 8fdd dfbd a090 9b39 f466 a53f 6e62 1bbf
00000220: df6c 4fbe 1ee4 f33e e4d1 143e 8c34 873d
00000230: 714a 463d 226b 22bf f2bb e73e 1a64 9dbd
00000240: 5f2f 023f 71b7 db3c dd1a 943d cf82 49bf
00000250: b8ef 8b3e f11b 26bd 289f 86bd 5a12 bcbc
00000260: 711e d4bd 601c c43d 49a9 14be 5851 9d3e
00000270: d18a 07be 480e efbc 2c29 7d3e 590b 873f
00000280: b069 8dbd f424 89bc c8d6 86bf 9f2b 2a3d
00000290: 9638 793f 9df1 b23e a72e d93e 6640 5f3e
000002a0: 1b37 acbd 5308 ce3d 8514 873f 1dad 75be
000002b0: a9f9 96bd 2189 793e bf42 163e 0634 11be
000002c0: 3f81 55be c780 753e 1223 70bf 389b 783e
000002d0: 1417 de3d 93f9 b93e d8c5 153e 11bd e13d
000002e0: 136b 14bf 1309 26be 163f 92be 4f16 7abe
000002f0: 71cb 8abe 0084 c1bc 1e2e 6ebd 4ec3 033f
00000300: cd6a 0b40 d8ea 66be 9d7a 0abd cc68 09c0
00000310: faaf e43c c9af 0a3f 482d 273f 1187 31bf
00000320: f284 d13e ab95 e2be e09f 64be 5b3d f03e
00000330: 7ac0 8c3c d444 b5be dd2e 7cbe 9d81 99bf
00000340: cd22 a43c 4913 80be af15 a63d e792 373d
00000350: db96 0b3f bcc6 413e ca42 50be b9f8 5d3e
00000360: bc7e 35be b1f3 97be eb73 c7be da0f 403e
00000370: 8087 a53d 505b 70bd 6d80 9abd 23df 833e
00000380: c54e d5bd 1e5a 3440 4759 16bf 9a5c b6bc
00000390: 968c 35c0 9473 8bbc b8ac 0040 b5a8 95be
000003a0: 2f40 8ebe 4e8d 133e a271 04be b699 30be
000003b0: a51f fa3e 94b7 0abe 7cca 8ebc e097 78be
000003c0: 52cc 5bbd 808c 6dbe c5c1 00be 7182 ad3d
000003d0: ff1a ecbe 0146 15bd a412 113c 3e1e a53e
000003e0: e0db a2be 6872 d6be 35af 44bf d07b 96be
000003f0: b5f3 333e 0d71 48bd aa9a 68bd 4332 993e
0.6696905 0.07761982 -0.63024884 0.08215872 0.35026518 0.49490392 -0.11492751 0.056083098
-0.6949347 -0.82087183 0.16167384 0.047657408 -0.049340863 -0.38555762 0.118211314 0.7471041
0.7422659 -0.25260237 -0.3064278 -0.012989526 0.20853122 0.24646117 -0.22501162 -0.162872
-0.05218329 -0.028464306 -0.112673484 1.6536115 -0.66308147 -0.032072395 -1.6836017 0.020004634
-3.5336297 -0.66195244 -0.3963705 -0.6985194 -1.2513343 0.12889919 0.22975469 -0.39410773
0.10808919 -1.3078274 0.22795859 -0.41599196 0.08409864 0.23709255 0.13947688 0.4807083
0.59894276 0.26984033 -0.31565338 0.12134007 0.4205526 -0.37373203 0.2087061 -0.041270033
0.37684107 0.0906025 -0.32715228 -0.2969896 1.7159907 0.39281794 0.031498138 -1.6288408
-0.03546477 1.1589433 0.2127292 -0.24171405 0.27593508 -0.08308218 -0.46134824 -0.32951736
-0.15100883 -0.6732259 -0.22323035 -0.0998559 -0.08010145 0.07794964 0.07662246 -0.35037532
0.07644762 -0.22221282 -0.040888306 0.21378666 0.19134218 0.49160913 -0.041871443 -0.4289113
0.25261322 -0.018172426 0.051789217 -0.114623174 0.70110893 1.9875304 0.19617268 -0.011843462
-2.0128832 -0.022013057 -4.32326 -0.3438861 -0.62478775 0.78469163 -0.092350505 -0.35131615
0.47032702 -0.79960555 -0.1561724 -0.052745003 0.41897297 -0.22705537 -0.07963016 0.09264828
-0.21473 0.22331332 -1.2110838 0.11301711 -0.07610468 -0.23753698 -0.07983989 -0.074813
0.086453035 0.0008807273 -0.04489461 0.23850313 -0.37820935 -0.27115178 1.6415439 0.72364014
-0.031285264 -1.6922436 0.0010398515 3.4068615 -0.10930931 0.00029671658 1.2922044 -0.60697067
-0.20256375 0.47634977 0.14533192 0.066018194 0.048410837 -0.6344472 0.45260578 -0.076851085
0.5085353 0.02682087 0.07231686 -0.78715223 0.27331328 -0.04055399 -0.065733254 -0.02295797
-0.10357369 0.095757246 -0.14517702 0.30726123 -0.13236548 -0.029181615 0.24722737 1.0550338
-0.06904924 -0.016741253 -1.0534296 0.041545507 0.9735197 0.3494996 0.42418405 0.2180191
-0.08408948 0.100601815 1.0553137 -0.23991819 -0.07371838 0.24368717 0.14673899 -0.14180002
-0.20850085 0.23974906 -0.93803513 0.24277961 0.108442456 0.36323223 0.14626253 0.1102239
-0.5797588 -0.16214399 -0.28563756 -0.24422573 -0.27108338 -0.023622513 -0.05814945 0.51469886
2.1783936 -0.22550523 -0.03380834 -2.1470213 0.027915943 0.54174477 0.6530347 -0.6934672
0.40921742 -0.44254813 -0.22326612 0.4692181 0.017181624 -0.35404074 -0.24627252 -1.199268
0.020036126 -0.25014713 0.081096046 0.04481783 0.5452706 0.18923467 -0.20337978 0.21676911
-0.17724127 -0.2967811 -0.38955626 0.18756047 0.08082485 -0.058680832 -0.075440265 0.25756177
-0.10415415 2.8180003 -0.58729976 -0.022260953 -2.8367057 -0.017022885 2.010542 -0.29230276
-0.27783343 0.14409372 -0.12933972 -0.17246136 0.48852268 -0.13546592 -0.017430536 -0.24276686
-0.053661652 -0.23198128 -0.12573917 0.08472145 -0.46114346 -0.036443714 0.008854542 0.32249635
-0.31808376 -0.4188416 -0.76829845 -0.29391336 0.17573436 -0.04893594 -0.056788124 0.2992116

fcs1.bias f4 [400]
00000000: 7662 c2bf c8ae c5bf 36ff efbf 84da c9bf
00000010: 2af5 78bf 8235 ffbf 6aa5 2cc0 8df5 4ac0
00000020: 7c8d 1fc0 144a bdbf 0c8b 11c0 71fd d33f
00000030: 1943 a9bf 9f05 1ec0 7758 2ec0 63ae 12c0
00000040: 0d1c 46c0 fb3c 1bc0 ac37 17c0 1e98 4ec0
00000050: 35a2 afbe f985 3dc0 607a 033c b5a6 3fbf
00000060: 665e 23c0 8d36 9fbf 4a91 17c0 508a 35c0
00000070: 0e49 aebf ac7b f5bf edd3 41c0 5560 adbf
00000080: 40c1 a4bf 55fb 2ac0 8535 3dc0 9d1d 44c0
00000090: df4d 25c0 22a4 1ac0 0052 2bc0 0165 48c0
000000a0: fb98 2cbe 5229 16c0 24d6 24c0 9cae 3fc0
000000b0: 824d 1bc0 92c1 58c0 e657 27c0 1c9c f7bf
000000c0: 3813 31c0 a833 19c0 3b64 0ebf 47d0 ccbf
000000d0: be56 2ec0 f91e 16c0 a164 8dbf ac31 13c0
000000e0: d532 30c0 e9d5 1dc0 7e4e e7bf a985 0dc0
000000f0: 5464 b1bf fcd9 86be 8b34 31c0 e07e 2bc0
00000100: 2a4f 2fc0 6693 c4bf 9239 1ac0 38eb 1fc0
00000110: f3f0 12c0 858d f7bf 276b 10bf 8ea6 31c0
00000120: ec4d 59c0 6536 53bf 0183 8abf a9d4 0fc0
00000130: 84b7 1dc0 0da6 a1bf 30c1 dabf 6970 c5bf
00000140: b73c 26c0 255b 20c0 96f0 04c0 8a2b 26c0
00000150: d814 8dbf 4cfb 3dc0 b777 21bf cb4a 3ac0
00000160: fa9b 82bf d2af 25c0 3526 20c0 9a05 16c0
00000170: 95e3 89bf d1ae 34c0 2aae 4dc0 abd6 bbbf
00000180: d99f 40c0 0c2a 25c0 f3b9 e2be 7c00 aebf
00000190: 887f 13c0 9bd9 98bf 9941 15c0 c45d cebf
000001a0: e518 2cc0 c027 adbf 9983 edbf e162 44c0
000001b0: 4ed7 5fbd afaf 22c0 7b8e 31c0 91cd 1dc0
000001c0: c2f0 3abe 4a1c e9bf 78c5 22c0 af6d 51c0
000001d0: fe6d 19c0 f0e9 30c0 8051 02c0 6b8a f5bf
000001e0: 2262 e6bd a7c4 19c0 a34d 28c0 a635 11c0
000001f0: 5486 06c0 2a7a 21c0 5ec4 41c0 0a7a 34c0
00000200: d348 e1bf 5450 bfbf abf2 4dc0 16d2 0ec0
00000210: d44c 13c0 bd14 18c0 f829 3ec0 f387 0bc0
00000220: 6abd 04c0 8010 1fc0 de4b 16c0 ad87 55c0
00000230: cc0d debf 4ff0 f0bf 85b2 04c0 4331 1ec0
00000240: 3e21 3cc0 792a 2dc0 d33e 18c0 bc54 d3bf
00000250: 8378 adbf bf3d 21c0 4143 0ec0 3605 0fc0
00000260: 79e8 efbf b6d4 36c0 0512 4ac0 5d0b e2bf
00000270: 265a 67bf 1c42 0fc0 0606 afbf 3e02 bdbf
00000280: 3dab ffbf 165e 00c0 9e51 2fc0 a3b0 37c0
00000290: 7a41 32c0 8ab8 15c0 50d6 bbbf 3bc1 bf3f
000002a0: eac1 dcbf 52f3 e1bf ecfe 25c0 458a 34c0
000002b0: b58e 50c0 9522 31c0 dd25 35c0 e5d7 f4bf
000002c0: 96c5 42c0 e529 18c0 56f6 49c0 37bf 3fc0
000002d0: fae2 12c0 1a0e bcbf bc99 30c0 bacd 0bc0
000002e0: cc1f 41c0 1124 12c0 5180 2ec0 35ea 1fc0
000002f0: a9ad 1ec0 2d40 10c0 adbb 07c0 6775 18c0
00000300: b01f 21c0 09a6 3dc0 346c eebf 184a 6bbd
00000310: 4f60 21c0 508a ffbf 7755 19c0 5455 21c0
00000320: 7028 4ac0 29d8 1ec0 8d3c 43c0 acf9 5cbe
00000330: e6ec b8bf f1c4 2cc0 cdeb 5ac0 4855 f1bf
00000340: f27d c5bf a79c e4bf 3ae4 a8bf a4b1 b8bf
00000350: 5b44 d9bf 63d4 06c0 a1f1 10c0 6760 04bf
00000360: b1a7 4abf 780a 04c0 66f1 3ec0 b0a1 53bf
00000370: 3772 f8bf 7295 d5bf 5af0 edbf f51f e0bf
00000380: 132b 40c0 e202 2cc0 dcc2 3bbf f5ba d7bf
00000390: d62d 17c0 e154 febf 494b 1fc0 833f 75bf
000003a0: dbd0 2bc0 3f64 7cbf 495b 07c0 19b4 cfbf
000003b0: b2b3 1bc0 5427 22c0 dbce ecbf 36e5 5bc0
000003c0: bee9 a3bf f7c9 3dc0 a823 0dc0 adb2 16c0
000003d0: aaad fcbf 83f1 e6bf 5ba7 3dc0 1219 1ec0
000003e0: f85c 45bf b05e 9ebf 7df7 2bc0 80f9 1ec0
000003f0: 5128 37c0 bac2 ebbf 038b f4bf 9511 38c0
-1.5186298 -1.5443964 -1.8749759 -1.5769811 -0.9724909 -1.9938204 -2.697596 -3.1712372
-2.4930105 -1.4788232 -2.2741117 1.6561719 -1.3223602 -2.469093 -2.7241495 -2.2918937
-3.095462 -2.425597 -2.362773 -3.2280345 -0.34303442 -2.961302 0.008024782 -0.7486375
-2.5526366 -1.2438523 -2.3682427 -2.836567 -1.3616045 -1.9178367 -3.02856 -1.3545023
-1.2871475 -2.67159 -2.9563916 -3.0643075 -2.5828779 -2.4162679 -2.67688 -3.1311648
-0.16855232 -2.346272 -2.57557 -2.9950323 -2.4266057 -3.3868146 -2.61474 -1.9344516
-2.766798 -2.3937778 -0.5562169 -1.6001061 -2.7240443 -2.3456404 -1.1046335 -2.2999067
-2.7531025 -2.466181 -1.8070829 -2.211283 -1.3858743 -0.26338184 -2.768832 -2.6796188
-2.7392068 -1.5357482 -2.4097638 -2.4987316 -2.2959564 -1.9340063 -0.564135 -2.7757907
-3.395381 -0.82504874 -1.0821229 -2.2473547 -2.464326 -1.26288 -1.7090206 -1.542493
-2.5974557 -2.505563 -2.0771842 -2.5964074 -1.1021986 -2.968463 -0.63073295 -2.910815
-1.020385 -2.5888562 -2.502332 -2.344092 -1.0772578 -2.82317 -3.2137551 -1.4674886
-3.0097563 -2.5806913 -0.44282493 -1.3593898 -2.304659 -1.1941408 -2.3321288 -1.6122365
-2.6890194 -1.3527756 -1.8555785 -3.068535 -0.05464869 -2.5419729 -2.7743213 -2.4656718
-0.18255904 -1.8211758 -2.5433025 -3.2723196 -2.3973384 -2.7642784 -2.0362244 -1.9182867
-0.11249186 -2.4026277 -2.6297386 -2.2688994 -2.1019487 -2.5230813 -3.0276103 -2.8199487
-1.7600349 -1.4946389 -3.2179363 -2.2315726 -2.3015642 -2.3762658 -2.9713116 -2.1801727
-2.074061 -2.485382 -2.3483806 -3.336406 -1.734796 -1.8823336 -2.073396 -2.4717567
-2.939529 -2.7057173 -2.3788345 -1.6510234 -1.3552402 -2.5193937 -2.2228549 -2.234693
-1.874282 -2.8567328 -3.1573498 -1.7659718 -0.9037193 -2.23841 -1.3673713 -1.4766309
-1.9974133 -2.0057425 -2.7393565 -2.870156 -2.7852464 -2.3393884 -1.4674778 1.4980844
-1.7246678 -1.765238 -2.5936842 -2.8209393 -3.2587101 -2.7677357 -2.830436 -1.9128386
-3.0433097 -2.377557 -3.1556602 -2.9960458 -2.2951035 -1.4691803 -2.7593832 -2.1844316
-3.0175657 -2.2834513 -2.7265818 -2.4986699 -2.4793494 -2.253917 -2.1208298 -2.3821657
-2.517559 -2.963259 -1.8626771 -0.05744371 -2.5215032 -1.9964085 -2.3958414 -2.520833
-3.158718 -2.4819434 -3.0505707 -0.21579617 -1.4447296 -2.6995203 -3.4206421 -1.8854151
-1.542906 -1.7860307 -1.3194649 -1.4429212 -1.6973985 -2.106713 -2.2647479 -0.517096
-0.79162127 -2.063139 -2.9834838 -0.8266859 -1.9409856 -1.6686232 -1.8588974 -1.7509753
-3.002629 -2.687676 -0.73344207 -1.685393 -2.3621726 -1.9869653 -2.48897 -0.95800036
-2.6846225 -0.98590463 -2.1149466 -1.6226836 -2.4328427 -2.5336504 -1.8500627 -3.435865
-1.2805707 -2.965452 -2.2053013 -2.3546555 -1.9740498 -1.8042454 -2.9633396 -2.4702802
-0.77094984 -1.2372646 -2.6869805 -2.4839783 -2.8618357 -1.8418801 -1.9104923 -2.8760731

fc2.weight f4 [300, 404]
00000000: fc3f c3be e3ab 75bd b1fc 0abd 7bc6 bebe
00000010: 91c6 a63d 257b 09bf 7d9c 17bf f43e 90bd
00000020: 5976 853d d1e6 9abc 04c1 cbbe 1d7c 05be
00000030: 4073 82be a591 8abd ad65 3abd 42e4 29be
00000040: b8d2 86be 617b 92be 7a1f 603c 3750 873d
00000050: 4c1a f3bd 9609 29bc b8b1 9ebe 50bd 46bf
00000060: 4861 91be e8e5 f7be 20ca 9dbd d30c 0abd
00000070: 40cd 25be 0b92 b1be 1f03 d43c 61d1 87be
00000080: 0cc0 1fbf ee71 77be 9e6d d6bd 344d 153d
00000090: 0f83 7f3d bc7c 9dbe 7b15 8ebc ae74 debd
000000a0: c6c8 c2bd 4867 863e 9474 963e 88e0 cabd
000000b0: 4227 cdbd 6c9c 1dbe d25f 79be 98ad 79be
000000c0: 6048 ba3c eb8e 43be 24b0 9bbd 97fb b3be
000000d0: 4c98 89be 7388 adbe 0409 473e 339f b9be
000000e0: d9b2 e43c 5f27 753e 3458 99be 0b10 30be
000000f0: c93d 24be 9ebe ccbe 8a15 51be 4867 93be
00000100: 7e05 9cbe 23fd 56bf 42d3 c4bd 4782 91be
00000110: 7bed d7be 6566 2ebe c586 d5be 6d35 02be
00000120: 9baf a5bd e4f8 18bf 6167 0c3e 8ba5 18bf
00000130: 816b 693d 1518 d6be a7ad 8bbf a74c 333e
00000140: c66b 46bd 2d65 20be 0a98 4ebe 48f7 0f3e
00000150: 8f80 dcbe 5467 dbbe efe6 c0bc 15aa e8bd
00000160: a659 a8be 0e2d c5be 8e69 bdbe 4d65 1bbe
00000170: 0396 4ebe 1988 73bd aadf 91bd ddb8 c6bd
00000180: 329b 8dbe 040c 8cbd 5407 2fbf 5a64 c7bd
00000190: 7a2b 583c 24a3 52be 880d 8cbe d1aa b5be
000001a0: 3032 21bc 786c 35bf 6d5a eabe 3177 163d
000001b0: 2daa 0dbf d1ce 09bf 5fa6 4f3c 8d5c 61bd
000001c0: e991 19bf 58b4 46be 8637 3dbf 3a57 813e
000001d0: e08e c1be 0245 40be 2831 d2be 172f 47bf
000001e0: e592 08be 31dd 60bd 48b4 f3bc cb9f 72bd
000001f0: 1550 9dbe 88c2 6a3e fcb6 4f3c dd5b 35bf
00000200: 119b c0bc a55f 953e 67bd d5bc 5002 033d
00000210: a0f3 173d 2f8e bebd 8bf8 febd ceaf d4bd
00000220: 648e 7bbd fcf1 85bc 13c6 5cbe b863 4fbc
00000230: 7424 16bc 7ab7 e5bd 2b00 84bb 9be7 493e
00000240: 9b42 e13d d486 4a3d 01ce 72be 4f34 abbe
00000250: bc91 10be 9da9 bdbd d99e 85be b3ed c0be
00000260: d673 04bf ee5a 983e 4f91 acbe f8ec 81be
00000270: 04e9 8ebb 8fd1 78be 64de dbbe f23c 0dbf
00000280: 55fc cdbc 23a0 f23e 7c4d e0be a57d 73be
00000290: af63 febb be22 0f3d 6f1d 04bf 5ccd bdbc
000002a0: e1a0 163c 8b92 d6bc 341b bebe cb92 3ebe
000002b0: 0b4b 16be 19d8 f7be 5460 d0bd 96a7 c4be
000002c0: 7a97 fc3b 013d 28bf 1237 f5be 300b 88be
000002d0: 55bc 82be e5ac 4fbe b3f5 e5bd fd44 503c
000002e0: eb32 c13d 56ee 79bd e65a 97bd 47bb 29bc
000002f0: e321 35bf edf8 83bc 5ba4 9bbd 6429 9ebe
00000300: fea7 91be 94ef ebbd f0ce cebe 3cbf 9d3c
00000310: 0629 aabc 2588 d6be 55fe 6bbd 076f 1dbf
00000320: fc1b 21bd 9878 15bf 556a 0abe ba06 1ebf
00000330: d03a c8be 9fb6 533e 75cd b43c 7c30 bebe
00000340: 21bc 2fbd 518a 43be e6bc 0fbe 036b c1be
00000350: 3d68 40bf 5088 5ebe 22e3 08bb f4fa 17bf
00000360: fb2e 02bf 3945 37be 5867 3dbe 9de0 e83d
00000370: 3940 dfbe 3582 bb3e e047 9abe d1cd 163d
00000380: e579 77bd b242 343d e98c 3b3e afe3 c0be
00000390: f427 77be 2bb1 08bf 2d8f 8abe 697c 90bd
000003a0: 2064 1e3e 0d83 02be 0d51 13bf 6f62 1fbf
000003b0: a575 8b3d 44aa 12be 8943 3dbf c2fc 7fbd
000003c0: 5f1e d5be 3564 f2bd a74f cdbc e67a 03be
000003d0: 2680 88be ec98 603e aa25 2ebe e9de d53d
000003e0: ec36 48bf d2d1 10bf d87b ecbd 62c4 303e
000003f0: 9b4a c53c 7ada 67bd b07f 94be 17ec 8cbe
-0.38134754 -0.059978377 -0.03393239 -0.37260804 0.08143342 -0.5370353 -0.5922316 -0.07043257
0.06516714 -0.01890889 -0.39795697 -0.13035627 -0.25478554 -0.06766061 -0.04550712 -0.1659098
-0.2633264 -0.28609756 0.01367938 0.06607097 -0.1187025 -0.010317227 -0.30994964 -0.7763262
-0.28394532 -0.48417592 -0.07704568 -0.033703636 -0.16191578 -0.34681734 0.025880395 -0.2652693
-0.62402415 -0.24164554 -0.104701266 0.03645058 0.062380847 -0.30759227 -0.017344227 -0.10862099
-0.09510951 0.26250672 0.29385817 -0.09906107 -0.100172535 -0.15391701 -0.24352959 -0.24382627
0.02273959 -0.19097488 -0.076019555 -0.35152885 -0.26874006 -0.33893165 0.19437033 -0.36254272
0.027917312 0.239408 -0.29950106 -0.1719362 -0.16039194 -0.3998918 -0.20418373 -0.28789735
-0.3047294 -0.83980006 -0.09610607 -0.28419706 -0.4217337 -0.17031248 -0.41704383 -0.12715693
-0.08090135 -0.59754777 0.13711311 -0.596276 0.05698729 -0.41815248 -1.091237 0.1750971
-0.048442625 -0.15663595 -0.20175186 0.14059174 -0.43066832 -0.4285227 -0.023547618 -0.113605656
-0.32880896 -0.38510936 -0.36994594 -0.15175362 -0.20174412 -0.059455965 -0.07122739 -0.097032286
-0.27657467 -0.06838229 -0.68370557 -0.097359374 0.013193959 -0.20570046 -0.27354074 -0.35481885
-0.009838626 -0.70868635 -0.45772114 0.036734764 -0.5533779 -0.538312 0.012673943 -0.055019904
-0.59988266 -0.19404733 -0.7391285 0.2526186 -0.37804317 -0.18776324 -0.41053128 -0.7780623
-0.13337286 -0.054898445 -0.02974905 -0.05923442 -0.3072516 0.2292577 0.012677904 -0.708433
-0.023511441 0.29174533 -0.02609129 0.031984627 0.037097573 -0.09304463 -0.124497496 -0.103850946
-0.06141509 -0.016350739 -0.21559934 -0.012658052 -0.009163965 -0.11216636 -0.0040283403 0.19717257
0.10999032 0.04944499 -0.23711397 -0.33438346 -0.14118093 -0.09260867 -0.26097754 -0.3768135
-0.5173925 0.29756874 -0.33704612 -0.25376105 -0.0043612737 -0.2429869 -0.42943108 -0.5517112
-0.025144735 0.473878 -0.43809116 -0.23778398 -0.007763348 0.034945242 -0.5160741 -0.023169212
0.00919363 -0.026192924 -0.3713013 -0.18610685 -0.14677064 -0.48407057 -0.10174623 -0.38409108
0.007708487 -0.65718085 -0.47893578 -0.26571035 -0.2553431 -0.20280798 -0.11228504 0.012711761
0.0943354 -0.06101831 -0.073903844 -0.010359592 -0.7075483 -0.016109908 -0.07599708 -0.30890954
-0.2844848 -0.11520305 -0.40392256 0.019256227 -0.020771515 -0.41900745 -0.057615597 -0.6149754
-0.03933333 -0.58387136 -0.13517125 -0.61729014 -0.3910737 0.20675133 0.022070626 -0.37146366
-0.042904023 -0.19095732 -0.14036903 -0.37776956 -0.75159055 -0.21731687 -0.0020887335 -0.593673
-0.50852937 -0.178975 -0.18496454 0.113709666 -0.43603685 0.36622778 -0.3013296 0.036817376
-0.060418982 0.044008918 0.18315472 -0.3767371 -0.24136335 -0.53395337 -0.2706236 -0.07054979
0.15467882 -0.12745304 -0.5754555 -0.6225957 0.06809548 -0.14322764 -0.73931175 -0.062496908
-0.41624734 -0.11835519 -0.025062395 -0.12839851 -0.2666027 0.21933335 -0.17006555 0.10442907
-0.78208804 -0.5657016 -0.11547059 0.17262414 0.024083426 -0.05660484 -0.29003668 -0.27523872

fc2.bias f4 [300]
00000000: 3d27 a1bd 5a53 87bd ad78 b0bd 0243 39bd
00000010: 63b3 ecbd 2186 03be a356 89bd d21f ecbd
00000020: ddfb 23be 48d4 2cbe 7d9e 1ebe b64f 13be
00000030: 8a1b c0bd 9d6c a4bd 2fc0 68be d592 d7bd
00000040: 82d3 b8bd b351 fabd c40e 2fbe e2d8 e4bd
00000050: 81c6 30be 814a 5abe 9313 eebd 7e39 b4bd
00000060: 1efe 92bd 76c2 f2bd 8766 fbbd dab3 0ebd
00000070: 139a f6bd 5812 24be 4764 dcbd cd18 eebd
00000080: 4461 0fbe 511f 19be e151 83bd 348a 40bd
00000090: cff4 46be d658 76be f9fa 23be 58e6 06be
000000a0: 5765 f8bd 4aea d3bd 9554 423f 49ff 393d
000000b0: bcbf ecbd 73ab b0bd 520a 3bbe 7342 72be
000000c0: 2716 2bbe 8794 07be 5cbe f2bd 856e c1bd
000000d0: d053 2f40 3599 11be adb6 06be e979 c3bd
000000e0: a849 6dbd 8f69 12be 4624 14be 41b4 90bd
000000f0: d7d9 14be 2b2f bcbd 29ef cbbd 09d1 f1bd
00000100: 3925 02be 8ecd 28be 8d19 03be 3cdf 04be
00000110: 42d1 0e40 2fa7 1bbe 2d86 f3bd 0349 d8bd
00000120: 7602 02be 4abe f6bd c441 efbd 2818 acbd
00000130: 6833 98bd c542 a3bd ba73 1ebe 2a16 a2bd
00000140: d3e0 c0bd e36b 33be 7d0f 37be 7828 4dbe
00000150: 0c35 4abd d45d bcbd 05ac 23be 9bf5 b13f
00000160: 6e9a 5dbd 46dd 00be 39af 76bd 3041 0abe
00000170: 1f21 2bbe 399a b9bd e24c ecbd b5c8 4fbe
00000180: 0039 3cbd 55a6 f9bd c6e0 d3bd b013 3cbd
00000190: 356e 06be ab99 ddbd e116 0fbe 8aa0 aabd
000001a0: cec9 15be c1dc f6bd e80c ddbd 2b4b 28be
000001b0: b248 14be 32a8 3bbe 8ef5 79bd 423b 2bbe
000001c0: 616f c4bd 7489 8ebd 8605 a4bd 89c6 2cbd
000001d0: 434d 12be 4fa2 76bd 89a7 d2bd 76b5 a1bd
000001e0: 6a13 8a3f db18 0ebe 5823 2dbe 689b 1bbe
000001f0: 6591 e3bd a9b8 54be dee2 f1bd 82c5 8cbd
00000200: 7760 30bf d8dd 03be 6cc2 13be afa7 90bd
00000210: e65f f2bd 59bf dcbd 0e98 1ebe 053c bcbd
00000220: ee2d 2abe 4138 28be ed6b a0bd 1641 08be
00000230: 1673 79be c5f2 e4bd 6279 c9bd 19c1 d7bd
00000240: 5baa ddbd 633e 81bd 332f 67be 5a53 36be
00000250: f94c 7fbd 4771 9ebd f742 24bf 57c2 e6bd
00000260: 6ea8 c3bd 5c97 07be d8ed dabd b29f 0bbe
00000270: e6c0 2bbf fd2b cdbd 316a 63bd 0b60 ddbd
00000280: 9f12 c0bd 08a3 34be 5387 e7bd a8b0 38be
00000290: feb7 3abe 7176 49be 0e55 a6bd e837 cdbd
000002a0: 4af5 2dbe d18d aabd 826a a5bd 55e2 d2bd
000002b0: 49e1 96bd 8659 29be 9681 5bbe f055 17be
000002c0: da45 08be 8dbe 13be ec59 f1bd b152 a0be
000002d0: db52 b4bd 79b5 47be a9ee a0bd b0f1 71bd
000002e0: 0ead a0bd 33a2 0dbe 4a38 1abe cf4a 67be
000002f0: 86d6 fcbd 9e71 bcbd 4533 33be 79f7 afbd
00000300: c686 d3bd 2ade e0bd df46 91bd b5da febd
00000310: 97ad f4bd 8641 95bd bfde 2fbd ca33 8cbd
00000320: 6db2 8cbd 6a8c 09be 1383 c2bd f1b7 0ebe
00000330: b954 a2bd 6e33 e8bd bc5d abbd 0ac6 febd
00000340: 9333 72bd 7533 3abe a701 83bd eac2 9ebd
00000350: 899e 25be cb36 84bc 3e0e e4bd c10a 02be
00000360: 1ba1 05be 9189 36bf 3138 e7bd d4d7 d8bd
00000370: f821 adbd f6bd 1ebe 6846 bbbd f568 22be
00000380: 11e3 89bd 970a 17be e258 2fbe 2a88 1fbe
00000390: 8472 29be 1c81 e8bd c2b5 e8bd 900b e5bd
000003a0: 6532 0bbe ceed 04bd e8cc e6bd 8398 08be
000003b0: 4a11 f5bd 4a1e e3bd 7685 d1bd 5bba 1ebe
000003c0: ebc3 e9bd 1789 3dbe 8c99 1cbe 05bf 38be
000003d0: 6623 18bd f3dd 9bbd 8c76 35bd c07c 08be
000003e0: 19ef b4bd 1a31 98bd b746 49be 9477 c1bd
000003f0: ce49 14be a80e 7abd 7697 c8bd b1f8 14be
-0.07868812 -0.06607695 -0.08616767 -0.04522992 -0.11557653 -0.12844135 -0.06705978 -0.11529507
-0.16014047 -0.16877854 -0.15490146 -0.14385876 -0.09380253 -0.08028529 -0.22729562 -0.10526053
-0.09024717 -0.12222614 -0.17095476 -0.111741796 -0.17263223 -0.21317483 -0.11624827 -0.08800028
-0.07177375 -0.11853497 -0.12275415 -0.03483949 -0.12041106 -0.16022623 -0.10761314 -0.11625824
-0.14001948 -0.14953353 -0.064121015 -0.0470068 -0.19429325 -0.24057326 -0.16013707 -0.13173807
-0.12128704 -0.103474215 0.7591031 0.045409475 -0.11560008 -0.08626451 -0.18265656 -0.23658161
-0.16707669 -0.13240252 -0.118527144 -0.09444908 2.7394905 -0.142186 -0.13155623 -0.09544737
-0.057931572 -0.1429808 -0.14466962 -0.07065631 -0.14536224 -0.09188684 -0.099577256 -0.118074484
-0.12709512 -0.16484663 -0.12802716 -0.12975782 2.231522 -0.15200494 -0.118908264 -0.10560801
-0.12696251 -0.120480135 -0.11682466 -0.08403045 -0.0743168 -0.0797172 -0.15473834 -0.07914384
-0.09417882 -0.17521624 -0.17877002 -0.20034969 -0.049366996 -0.09197584 -0.15983589 1.3903078
-0.054102354 -0.12584409 -0.0602257 -0.1350143 -0.16711853 -0.09062619 -0.11538102 -0.20291407
-0.045952797 -0.121899284 -0.103456065 -0.045917213 -0.13127978 -0.108203255 -0.13973571 -0.08331402
-0.14627764 -0.12053824 -0.10793477 -0.16434924 -0.14480856 -0.1832588 -0.061025195 -0.16721824
-0.09591556 -0.06959811 -0.08008866 -0.042181525 -0.14287286 -0.060213383 -0.10285861 -0.07895939
1.0787175 -0.13876669 -0.16908014 -0.15196002 -0.11111716 -0.20773567 -0.118108496 -0.06873609
-0.68897194 -0.12877595 -0.14429635 -0.07063233 -0.118346974 -0.10778684 -0.15487692 -0.09191135
-0.16619083 -0.16427709 -0.07833085 -0.13306078 -0.24360308 -0.11179117 -0.09837605 -0.10534877
-0.10823508 -0.063107274 -0.22576599 -0.17805234 -0.062329266 -0.0773645 -0.6416468 -0.11267536
-0.0955361 -0.13241333 -0.10689896 -0.13635138 -0.67091215 -0.10018156 -0.055521194 -0.10809334
-0.09378552 -0.17640316 -0.11305108 -0.18036139 -0.1823425 -0.19674088 -0.08121692 -0.10020429
-0.16988102 -0.083278306 -0.080769554 -0.10297076 -0.073671885 -0.16538057 -0.21436152 -0.14778876
-0.13307896 -0.14428158 -0.11784729 -0.3131309 -0.08804866 -0.1950282 -0.07858021 -0.05906838
-0.078455076 -0.13831405 -0.15060535 -0.22587131 -0.123456046 -0.09201358 -0.17500027 -0.085921235
-0.1032844 -0.109798744 -0.07093596 -0.12444059 -0.11947172 -0.07287888 -0.042937037 -0.068458155
-0.068699695 -0.1343247 -0.09497657 -0.13937356 -0.07926316 -0.113379344 -0.08367488 -0.12440117
-0.059131216 -0.18183692 -0.063967995 -0.07752021 -0.16173758 -0.016139409 -0.11135529 -0.12699415
-0.13049738 -0.7130366 -0.112900145 -0.10588041 -0.08453745 -0.15502152 -0.09144288 -0.1586035
-0.067327626 -0.14750133 -0.1712375 -0.15579286 -0.1654759 -0.11352751 -0.113627926 -0.11183846
-0.13593443 -0.03245335 -0.112695515 -0.13339429 -0.11966188 -0.110897616 -0.10230534 -0.15500776
-0.114143215 -0.18509327 -0.15292948 -0.18041618 -0.037143134 -0.07610693 -0.04430251 -0.13328838
-0.08834667 -0.074312404 -0.19655882 -0.09446636 -0.14481279 -0.061049134 -0.09794514 -0.14547993

fc3.weight f4 [1, 300]
00000000: b2e3 b03c c618 d83c 0ec9 adbc 23c2 00bd
00000010: afe1 c4bb 0644 833c aef6 c1bc adb3 a83c
00000020: 7bd5 a8bc f00d b0bc ddba cbbc 88ef 83bc
00000030: e68d ba3b 6a6a 4a3c 92ca e0bc 7aab d8bc
00000040: bc7b a9bc 43c4 243c 068d ea3b ca62 353b
00000050: 53eb 8b3c dde7 e9bc f652 383c 6a9e 5b3c
00000060: acd7 92bc 9508 d53c 5fe7 c53b 2fdd ed3b
00000070: a0cb 883b a6b9 c3bb acbf 853c 0b0d c1bc
00000080: 117c 58bc 9365 32bc d9d1 59bb c945 383c
00000090: 5a0a 1eb9 b8fe 37bb ccc6 053c 8901 8e3c
000000a0: fc8a f2bb ccae e8bb 8683 a03c ebf9 ec3c
000000b0: a92f e4bb 808c fc39 e097 9f3c a6a6 67bb
000000c0: 3637 163b 0129 623b 3595 833c 6f1f 87b8
000000d0: 4f68 a43c 10d2 bc3a 3f9b 53bb 8f6c 6dbc
000000e0: 9118 ed3c 3b0b 673c 0abc 813c 2260 a0bc
000000f0: 27c3 ccbc bd76 2b3b fdf9 cbbc 4424 a539
00000100: f37e e9bb 0554 763b 968f 28bc 3eb4 f03c
00000110: 362c 853c 9411 b33b 899f b9bc 8883 96bb
00000120: 9bb9 d8bc b6d3 c6bc ea11 e9bc 0e7e 19bc
00000130: d2ab 42bb e88f 213b 6915 21ba ebb5 36bc
00000140: 9846 c2bb 0194 0f3c 69ad 993c d394 5bbc
00000150: 8fc8 b53c 0286 b2bc 0608 b9bc 04f7 4c3c
00000160: f857 de3b 6eaf c33c cefe 1f3c 96eb 5cbc
00000170: e835 683c 7390 edbb 8ab0 7abb 1c53 d1bb
00000180: 2053 66bc b0a9 883b f986 05bc 3b23 10bb
00000190: 8b45 b3ba 6202 a9bc 042e 3cbb 048e 9b3b
000001a0: 0d3b f6bc 2ad6 d83c 7263 a63b 74ca 423b
000001b0: cd97 b3bc f2f5 d6bc d328 e9bc 4196 a63c
000001c0: e90c a1bc 1564 383b eb49 1d3c be91 2dbc
000001d0: 09d4 c6bc cf33 0c3b 700f 483c a518 d4bc
000001e0: 37b3 a33c 11e7 a03c 2332 af3c c6f5 9e39
000001f0: b368 babc b909 a3bb 8b42 dd3c edcc f73c
00000200: 7cb8 7bbc 8ba4 5abc a369 edbc 3fec 04bd
00000210: a3ad 98bc 099e 82bc b535 c83b 331a 95bc
00000220: 6e39 d73c 9e3c 9f3c 101b aa3a 0c2e eb3c
00000230: f474 b9bc 6e83 e0bc 943d d93c 3b5e b1bc
00000240: 116a c0bc 978c 903c 2611 39bc 8635 9b3c
00000250: 5915 94bc 4027 fdbb 9793 c93a 8012 dd3c
00000260: 6b85 f33c 18c5 c3bb 284a cc3b 5393 973c
00000270: 5cf9 dcba 8734 fa3b f688 32bb eae0 333c
00000280: d65e 93bc 389e d6ba 95bb a43c 67a4 66bc
00000290: ec2f d93c 096c 143c 9833 3f3b 24e3 fbbb
000002a0: 424d 77bc a65b e9b9 7320 c03c 9f44 d0bc
000002b0: 81e6 f6bc 1e9c a23c 4c83 ac3c e68f 2abc
000002c0: 2b6e dcbc ba3e c3bc b5f3 0fbc b8b5 bdbc
000002d0: ea10 92bc 64da d43a d323 233b 5158 113c
000002e0: 9f88 f03c c13c b3bb 8515 afba 358b 2d3c
000002f0: 4e63 b4bb b81b f1bc 836a f13a 1591 07bc
00000300: 292b 59bc 8b8d 15bc f396 163c 5969 ab3c
00000310: dfd2 823c 21e2 0a3c f624 2d3c ea3f cb3c
00000320: c6ea f63c 9a2d dbbc 905f b2bc 978d a6bc
00000330: c129 ca3c 6749 01bd f1d4 c5bc 3618 afbc
00000340: 4552 bcbb 9adb fbbc 1f1c 13bb 27e3 7c3b
00000350: c9b8 8a3c 2927 0bbc 5e66 953b 343c c03a
00000360: 9a97 0c3c e344 15bc a4f2 48bc 34e0 ebba
00000370: f60c d7bc cc07 d6bc 7a3b 8fbb ed93 9abc
00000380: 10fd 973b 108d cebc fb4f e6bb c898 cb3b
00000390: a9ea cabc 755f 903c f7da ec3a 8d32 96bc
000003a0: 01d2 d2bb 06d9 85bb c92b abbc ac51 3e3c
000003b0: 8d7f 2cba 0e75 5ebc 0f64 dabc b5c6 d2bb
000003c0: 440d fabb 1d74 fbbb a5a3 8cbc d836 d8bc
000003d0: eaa1 71bb 0ab3 f1bc e966 11bc f3c7 25bc
000003e0: f71f 663c 04d4 ca3c 9861 463c 838a 4dbc
000003f0: 305a ec3c 79cd 6a3c 6a04 1a3c 241b 873c
0.021592949 0.026379 -0.021214034 -0.031435143 -0.006008349 0.016023647 -0.023677196 0.020593489
-0.020609608 -0.02149102 -0.024869377 -0.016105428 0.005693185 0.012354473 -0.027440343 -0.026448954
-0.020688884 0.010056558 0.0071579246 0.002767729 0.017079985 -0.028552944 0.011250248 0.013404468
-0.017925106 0.026005069 0.0060395445 0.007259033 0.0041746646 -0.0059730588 0.016326748 -0.02356579
-0.0132131735 -0.010888475 -0.0033236651 0.011247107 -0.0001507191 -0.0028075408 0.008165073 0.017334716
-0.007401822 -0.0071009155 0.019593965 0.028927764 -0.0069636893 0.00048169866 0.0194816 -0.0035347133
0.0022921092 0.0034509304 0.016062358 -6.4431566e-05 0.02006927 0.0014405865 -0.0032288579 -0.014491214
0.028942378 0.014101799 0.015836734 -0.01957709 -0.0249954 0.0026163303 -0.024899477 0.00031498272
-0.007125729 0.00375867 -0.01028814 0.029382821 0.016256433 0.005464742 -0.02265908 -0.0045933165
-0.026455691 -0.024270874 -0.028450925 -0.009368433 -0.0029704464 0.0024652425 -0.0006144853 -0.011151771
-0.0059288256 0.008763314 0.018759446 -0.013402182 0.02219036 -0.021792416 -0.022586834 0.012510065
0.006785389 0.023887362 0.00976534 -0.013483902 0.0141730085 -0.0072498857 -0.0038252198 -0.0063880812
-0.0140579045 0.004170619 -0.008149856 -0.0021993655 -0.0013677342 -0.020631019 -0.002871395 0.004747154
-0.030057454 0.026469309 0.005077773 0.0029722722 -0.02192297 -0.026240323 -0.02846185 0.020335319
-0.019659476 0.0028135825 0.009600143 -0.01059383 -0.024271028 0.0021393185 0.012210712 -0.025890658
0.019982917 0.019641431 0.021386212 0.00030319224 -0.022755003 -0.0049755243 0.02700927 0.030249083
-0.015363809 -0.013344894 -0.028981036 -0.032451864 -0.018637484 -0.015944498 0.006109918 -0.01820097
0.026272502 0.019438084 0.0012978036 0.02870848 -0.022638775 -0.02740642 0.02651862 -0.021651378
-0.023488076 0.017645163 -0.011295592 0.01894642 -0.018076586 -0.007725626 0.0015379068 0.02698636
0.029726705 -0.005974423 0.006234426 0.018502867 -0.0016858983 0.0076356563 -0.002724228 0.010978917
-0.017989557 -0.0016374057 0.020108977 -0.0140772825 0.026512109 0.009058961 0.002917504 -0.0076869894
-0.015094103 -0.00044509507 0.023452973 -0.025423346 -0.03013921 0.019849833 0.021058701 -0.010410285
-0.026908 -0.023833621 -0.008786132 -0.02315794 -0.01783033 0.0016239402 0.002489318 0.008871154
0.029362021 -0.005469889 -0.0013357854 0.010592272 -0.005505002 -0.029432163 0.0018418584 -0.008274336
-0.013254919 -0.009127985 0.009191263 0.020924257 0.015969692 0.008476765 0.010567894 0.02481075
0.030141246 -0.026755143 -0.021774083 -0.020331187 0.024678113 -0.031564143 -0.02414939 -0.02137385
-0.005747112 -0.030744363 -0.0022447181 0.0038587542 0.016933816 -0.008493223 0.0045593223 0.001466638
0.0085810665 -0.009110662 -0.012264881 -0.0017995895 -0.026251297 -0.026126765 -0.004371104 -0.018869365
0.0046383217 -0.025213748 -0.0070285774 0.0062132813 -0.024770098 0.017623642 0.0018070628 -0.018334651
-0.006433726 -0.004084709 -0.020894902 0.011616152 -0.0006580286 -0.013577713 -0.02665904 -0.006432379
-0.007630976 -0.007673754 -0.017167876 -0.026393339 -0.003687019 -0.029504318 -0.008874633 -0.010118472
0.014045707 0.0247593 0.012108229 -0.012545231 0.028851599 0.014331215 0.009400466 0.016492434
