checkpoint_actor_1.pth (torch_old, 541413 bytes, 6 tensors)

fc1.weight f4 [400, 33]
00000000: 85be 913d aaa8 0b3e 960a 47be f259 e6bd
00000010: 1561 323d 872d 38be 1bda 33bd 5379 963d
00000020: 1cbd 463d 8275 e0bd db8f b7bc ef4b 1b3c
00000030: d148 d9bd c16e 9ebe 9dda 063e 5c42 873d
00000040: 453d ff3c 39f4 7f3b a16d dabc 505d 313c
00000050: c11e 1ebd 9d05 4e3e 499f 643d 9b75 26be
00000060: 4968 2b3d 2755 4c3d 069a 8b3d 2bd1 e63d
00000070: e152 f5bd c3d1 abbc b653 30be d789 f0bc
00000080: e89d d3be f6c3 8cbe 0081 883e 55e7 f33c
00000090: da00 fdbe f6b8 5a3e 5369 b83e 05b7 403d
000000a0: 09c1 b2bc 3b21 e93b f251 9fbc 64c8 a8bc
000000b0: 7ab3 f53c 7051 bdbc 030e 4b3d 1109 003e
000000c0: b4b2 7ebc 1ba7 4d3e d4cd ab3c f095 9c3d
000000d0: 726d 13bc 5527 4f3d 1095 803d ae92 b3bd
000000e0: 9d79 b63d 251a 5d3d 5031 33be 6844 a7bd
000000f0: 50dd 953e 2895 d2bd 3560 3bbd 9e8e 8bbe
00000100: 4e2a 10bd e9b8 683f dcf7 80bc 1335 df3d
00000110: 7022 63be 97d9 603d 2bd6 08be 6bee bbbc
00000120: 275b d4bd 1d68 17be 32da 18be d2f8 883d
00000130: 3e58 6cbd c43d 0b3c e480 e63c eda4 7fbd
00000140: 13a0 683e eb58 053e 3543 bbbc 2bd4 cebd
00000150: 7958 31bd 64ce 943c 5146 083d 551e 013e
00000160: 7803 3e3c 1046 09bd a04d 283d 705a ee3d
00000170: 7a40 49be a6e8 443e 3fa0 5b3d c3f1 c9bc
00000180: d662 15be 49b0 053d fcfd 8bbf 57fa 943e
00000190: b3d3 9d3e 23b3 ea3d 9516 9bbe f8e5 2b3e
000001a0: 33e8 d8bd c0a5 c8bd 5b5b 29bd a64f 413c
000001b0: f355 693e 34e2 213e 26f8 023d e904 943d
000001c0: b7fa 773d e527 37bd e0fe 9e3d 483c 413d
000001d0: d3ed eb3d d113 243e abdf 7c3d baf4 473c
000001e0: 1f4b c03c 1dd2 1bbd fd21 d73d 933a fd3d
000001f0: 1b69 cabd 6614 75be f0f3 523e 694d 3cbd
00000200: d410 143c 16cd 72be a757 293d 194d 2cbe
00000210: 8589 93be 1ee2 373e 3a4f 1b3d cb6e 27be
00000220: 9244 a0be 0e98 64be 83eb a7bc 4f97 3ebd
00000230: 039e a5bd 0a7f 45be 1d28 e1bd 4f2b 213e
00000240: 2169 bdbd 7879 8dbd cb45 373e bd99 d23d
00000250: 61fa 10bd 5a1b 5d3c e51a 183e af64 b0bc
00000260: 61a0 d2bc aebb 6cbe e29c 0b3e d394 1b3c
00000270: 005e 463e 8acd d2bd e029 6fbc fc68 563e
00000280: ade9 bebd c371 a0bc e656 03be b276 c83c
00000290: cef2 87be d37d d3bd a893 123d 9643 173e
000002a0: bd13 b1bd 8b23 c7bd 1ad6 1b3f 8c1f c23d
000002b0: 6f2c ae3c 51b0 a23d 8969 f73c 52c4 f8bc
000002c0: 65d5 713b 96d9 9e3d 75bd 953d d981 a13e
000002d0: 34e1 cfbd 69db d5bc 709f 163d ff58 1e3d
000002e0: 5ac8 33bc c454 f9bd bf26 5e3d 8ebe 8d39
000002f0: 3e3a 87bd c56d ec3d f693 dfbd 111f 09be
00000300: 4cf9 403e b91f 62bd 23ca 243d b985 dcbd
00000310: fd16 f9bc 5409 8a3d 2370 49be 953f 763e
00000320: eedf 9f3e b0e4 31be 5c4c 23be 79ad 41bc
00000330: dd30 0a3d 96fb 9b3d 271f 893e e11a 38be
00000340: 85d3 04be 2d8f bd3d 2a14 cabd 3ca2 e0bc
00000350: 361f 683e 8f80 f4bc fd61 483e 461d f539
00000360: 3521 903d 4b01 4a3c d53a 5cbe 6a63 263e
00000370: ddc1 173e 05b6 c43c 91e2 0a3e 26c4 99bc
00000380: 0a87 10be c541 7e3e 7bbb c7bd f3e5 1d3d
00000390: f9b3 3bbe 74a5 743c 8754 2abe 64fb db3e
000003a0: f90e d13d 3936 b5bd a158 0d3d c22d 853e
000003b0: f058 2bbe 4657 eb3b eab4 7abb 8cd6 69bd
000003c0: d7f8 eb3d 72ee 703d e92b 9cbc 8078 473c
000003d0: 1e01 dcbe c99c a1bd 7024 ae3d 8650 1c3b
000003e0: 93d6 82bd 69db 07bd 0c26 d0ba 21f2 ec3c
000003f0: 2464 c43d 0d47 1d3c 8ae0 9dbd d84a 22bd
0.07116417 0.13638559 -0.19437632 -0.112476245 0.043549616 -0.17986117 -0.043909173 0.073473595
0.048520193 -0.10959913 -0.022407463 0.009478553 -0.10609592 -0.30943874 0.13169332 0.06604454
0.031157145 0.003905548 -0.026663603 0.01082547 -0.038603548 0.20119329 0.05581597 -0.162558
0.0418475 0.049885895 0.06816487 0.112703644 -0.119786985 -0.020974046 -0.17219433 -0.029362602
-0.4133141 -0.27493256 0.2666092 0.029773394 -0.49414712 0.2135962 0.36017856 0.04704954
-0.021820562 0.007114557 -0.019448254 -0.020603366 0.029992808 -0.023110121 0.04957391 0.12503459
-0.015545536 0.20083277 0.02097217 0.07645786 -0.008998262 0.05057462 0.062784314 -0.08768211
0.08909915 0.05398001 -0.1749928 -0.08167344 0.2927041 -0.102823555 -0.045746047 -0.27257246
-0.035196595 0.9090715 -0.015743189 0.10898795 -0.22181106 0.05489501 -0.13362949 -0.022940835
-0.103689484 -0.1478581 -0.14926985 0.06688084 -0.05770134 0.008498613 0.028137632 -0.062413145
0.22717313 0.13022201 -0.022859195 -0.100990616 -0.043297265 0.018164821 0.033270184 0.12609227
0.011597507 -0.033514082 0.041089654 0.11638343 -0.19653502 0.19229373 0.05361962 -0.024651414
-0.14588484 0.03263882 -1.0936885 0.29097244 0.30825576 0.11459949 -0.30290666 0.16786945
-0.105911635 -0.09797239 -0.04134689 0.011798775 0.22786693 0.15808946 0.031974934 0.07227499
0.060541835 -0.04471578 0.07763457 0.04717663 0.11519971 0.16023184 0.061736744 0.012204343
0.02347332 -0.038042177 0.105045296 0.12364688 -0.098833285 -0.23933563 0.20600867 -0.04597226
0.009037215 -0.23711047 0.041343357 -0.16826285 -0.28815857 0.1795735 0.037917353 -0.16350858
-0.31302315 -0.2232363 -0.020498043 -0.046531018 -0.08086779 -0.19286743 -0.10993979 0.15739177
-0.092485674 -0.06907934 0.17897718 0.102832295 -0.03539503 0.013495291 0.1485401 -0.021532385
-0.02571124 -0.23118469 0.13634065 0.009495932 0.19371796 -0.1029311 -0.014597386 0.20938486
-0.09321914 -0.019585496 -0.12826118 0.02447066 -0.26552433 -0.103267334 0.035785347 0.14771876
-0.08646343 -0.09723576 0.6087357 0.09478673 0.021261422 0.07943786 0.03020169 -0.03036705
0.0036900875 0.07756345 0.07311527 0.31544378 -0.10150376 -0.0261056 0.036773145 0.038659092
-0.0109730605 -0.12174371 0.05423617 0.0002703559 -0.06602906 0.115443744 -0.10916893 -0.13390757
0.18845099 -0.055206034 0.040231835 -0.10767693 -0.03040647 0.067400604 -0.19671683 0.24047692
0.31225532 -0.17372394 -0.15947098 -0.011821144 0.033738006 0.076163456 0.2678158 -0.17979003
-0.12971313 0.09255824 -0.09867127 -0.02742111 0.22668156 -0.029846458 0.1956863 0.00046751852
0.07037584 0.01232941 -0.21506818 0.16248861 0.14820047 0.024012575 0.1356299 -0.018770289
-0.14114013 0.24829777 -0.09752556 0.038549375 -0.18330373 0.014932025 -0.16633807 0.42965233
0.10207934 -0.08848233 0.03450835 0.26011473 -0.16733146 0.0071820347 -0.0038254806 -0.057089373
0.11522072 0.05882115 -0.019063907 0.0121747255 -0.42969602 -0.078912325 0.08503044 0.0023851707
-0.06388583 -0.03316823 -0.001588048 0.02892405 0.09589413 0.009599459 -0.07708843 -0.039622158

fc1.bias f4 [400]
00000000: f7cf df3c d12c 10be 366b 85bd 24d2 f6bd
00000010: 4b2a 90bd de66 993c 3aef a4bd 02fa 12bd
00000020: 8350 57bd 4170 c4bd 34da aebb fc75 d1bd
00000030: 69a0 20be d82e 52be 756f 103d d1ca cc3c
00000040: 2ecd d7bc aa2e a3be d915 96be 713c 463e
00000050: c920 d6bd f380 7b3d b461 ba3c 801a 95be
00000060: c2a3 6dbd 819f f3bd d5f6 bcbd a46a 98be
00000070: 2ad7 57be 6662 70be 9c0c f2bd 9741 463b
00000080: 5881 d13d 9d8a 39bd 3031 bbbd 4e3e 24be
00000090: 3c36 873d e17f 3d3d 0bed febc 2fff 4cbe
000000a0: 1fdc 82be 0aa5 b9be 35a1 02be 06eb 18be
000000b0: ee67 b03b e5b9 a1be adb4 ffbd 4c8c b73d
000000c0: ab48 e73d 2c27 75be 61f4 82bd 1fe4 9fbd
000000d0: 029a 39be e81b 0cbe 9f8e c0be 92a0 7abd
000000e0: 4420 a4bc 1b8b b2bc bca6 08be 5f53 f2bd
000000f0: ed6c 84be 5ea9 0ebe 0aae 3ebe b76a 62be
00000100: 02ca 83be 9d38 58bc 97d8 bfbe 95c2 a5be
00000110: e248 82be 6cba 983e f6c8 d6be 8689 b0bd
00000120: 9b76 9cbd 82a0 b7be 747a 693d 71a8 6bbe
00000130: bb29 0fbe 4242 7bbe 343b 86be 4274 27be
00000140: c7f7 82be b572 f4bd 47d1 59be 15dc 21be
00000150: e780 01be 1787 98be d083 9fbd bda6 9b3e
00000160: 3254 a0be 8b32 dcbe 1126 b1bd 8b06 fabc
00000170: 59fd 83bd c733 22bd fef4 aebd c63f b43c
00000180: 3113 403d a457 63be aba8 4cbe 59fa bbbe
00000190: de83 edbd 0535 2d3b 6906 64bd e96e de3d
000001a0: b585 4abe be7d 1bbe 6951 d43d 789c e2bc
000001b0: 718e abbe 4f9a 94be 1ece 3c3d 18b2 8fbd
000001c0: 01b7 7a3d d10d 46be 5de6 cabd 52c0 91be
000001d0: c741 91be dac0 2f3c 77ae ea3a e029 1cbd
000001e0: a9b9 3cbb 6a73 bcbe 8803 15be 1eff f8bd
000001f0: 1682 9dbe e265 e2bd fbab 54bc 7227 4fbd
00000200: e886 a1be d6ae f03c e31d 22be 11c0 8cbd
00000210: c602 6b3e 9617 423d 867e d8bd d07d c0be
00000220: 88d0 52be 797f 67be 1fe9 b0be 5eea 53be
00000230: b116 c8be fb1c a7bd ba7d 60be 4923 763d
00000240: 3c15 1bbe c546 26be 4922 8b3c c9f6 4e3e
00000250: 2674 8bbe fa1f b1bd 135c 98be 4476 293e
00000260: dd10 e33d 7e0d 28be c3d2 aabe 730b 03bd
00000270: 893a 7dbe 1e6b dc3d 2132 06be 75e0 debd
00000280: 9afe f83d 69f5 d2bd 39ab 5d3d d257 66be
00000290: afd7 473e 9f27 7abe 4433 b1bd 00f7 08bc
000002a0: 9d00 8abe ff38 35be e34e 303d 0f96 febc
000002b0: ea9d 15be aab9 c0be 7d71 513d 8a03 acbe
000002c0: 5628 79be b36c 33be 6d94 593d ba13 7a3d
000002d0: 57aa 89bd 7281 5bbe aaa5 0dbe 29f2 11be
000002e0: 623f 513e 0b8c d3bd 9f57 0cbe 42cf 0f3c
000002f0: cfc1 7ebe ab2a 3dbe 3b15 2c3e f806 44be
00000300: e483 a83d 31f7 a13c 58cd 2ebe 0e4b 5cbe
00000310: cdec fcbd b515 aebe 6018 fabd a2fa 6ebe
00000320: 0bfc 7cbe 4e05 5dbe d915 89be 40e5 a4bd
00000330: 31b6 03bd e8ff b6bd 2fb0 a8be a466 54be
00000340: 50ca 81be e35a 73be 71eb 44be 9ac0 a4be
00000350: a474 26be 2385 2cbe 5585 f1bd cf13 81be
00000360: c366 5b3c 918c 76be 87cd b23d 3d6a babc
00000370: 9907 2bbe 1499 64be e487 cebd c6b0 39be
00000380: 444a b0be 2e7e 54bd 32e4 9c3e 27ff 9fbe
00000390: 0538 f8bd 25d0 23be 26fb 2cbe d75f 97be
000003a0: be89 0abd 15b2 febd 2e8f bc3d 027a a93c
000003b0: 68bb c8bd 7d2f 95be 8dca f3bd e146 a6be
000003c0: d232 3b3e 23c2 73be cf50 473b e79c 89be
000003d0: c6ef 68bd 6cd3 94be 5db7 5bbd 45cd 833c
000003e0: f40e a6bd 08f3 e0bd ada2 233e edde 8b3d
000003f0: 8972 613c d7fd 09be f5f3 b1be ae47 10be
0.027320845 -0.14079596 -0.065145895 -0.120518 -0.07039317 0.018725809 -0.08053441 -0.035882957
-0.052567016 -0.09591723 -0.0053360704 -0.10227582 -0.15686192 -0.20525682 0.035262544 0.024999054
-0.026342954 -0.3187154 -0.29313543 0.19358994 -0.10455472 0.061402272 0.022751667 -0.2912178
-0.0580175 -0.11895657 -0.09226767 -0.2976886 -0.21078172 -0.23475036 -0.11818811 0.0030251497
0.102297485 -0.045298208 -0.09140241 -0.16039392 0.06602141 0.046264533 -0.03111889 -0.2001922
-0.25558564 -0.36258727 -0.12756808 -0.14933404 0.005383483 -0.3158714 -0.12485633 0.089623064
0.11293157 -0.23940724 -0.06394268 -0.078071825 -0.18125156 -0.1368252 -0.3760881 -0.061188288
-0.020034917 -0.021794846 -0.13344854 -0.11832308 -0.25864354 -0.13931796 -0.18621078 -0.22111021
-0.25740057 -0.013197091 -0.37469932 -0.32375017 -0.2544623 0.2982973 -0.41950196 -0.086199805
-0.0763981 -0.35864645 0.057001546 -0.23013474 -0.13980763 -0.24536994 -0.26217043 -0.16352943
-0.25579664 -0.11935941 -0.21271239 -0.15806611 -0.12646829 -0.29790565 -0.07788813 0.3040065
-0.31314236 -0.4300731 -0.08649839 -0.030520698 -0.064448066 -0.03960016 -0.08542822 0.022003066
0.046893302 -0.22201401 -0.19986217 -0.36714438 -0.11597417 0.0026429307 -0.055670176 0.10860998
-0.19777568 -0.15184686 0.1036709 -0.0276625 -0.33507112 -0.29023978 0.046095006 -0.070163906
0.061209682 -0.19341208 -0.099072196 -0.2846704 -0.28370497 0.010727132 0.0017904778 -0.038125873
-0.0028797186 -0.36806804 -0.14552128 -0.12158035 -0.3076331 -0.11054589 -0.012980456 -0.050574727
-0.31548238 0.029380243 -0.15831713 -0.06872571 0.22950277 0.047385775 -0.105710074 -0.37595987
-0.20587361 -0.2260722 -0.34552857 -0.20694873 -0.39079812 -0.081598245 -0.21922961 0.060092244
-0.15144819 -0.16237934 0.016984122 0.20211329 -0.27237052 -0.08648677 -0.29757747 0.16549021
0.11087201 -0.16411397 -0.33363923 -0.03199334 -0.2472936 0.107626185 -0.1310506 -0.108826555
0.121579364 -0.103007145 0.05411837 -0.22494438 0.1951587 -0.24429177 -0.08652356 -0.008359671
-0.26953593 -0.17697524 0.043043982 -0.031077413 -0.1461102 -0.3764165 0.05113362 -0.3359645
-0.24331793 -0.17521934 0.053120065 0.06105397 -0.06721943 -0.21436098 -0.13832727 -0.14252533
0.20434335 -0.103294455 -0.137053 0.008777441 -0.2487862 -0.18473308 0.16804974 -0.19143283
0.08228281 0.01977119 -0.1707052 -0.21513006 -0.12349854 -0.34000936 -0.122116804 -0.23337796
-0.24705522 -0.21584055 -0.2677448 -0.080515385 -0.032156173 -0.08935529 -0.32946917 -0.2074228
-0.25349665 -0.2376514 -0.19230439 -0.32178193 -0.16255432 -0.16847663 -0.11793009 -0.25210425
0.0133911995 -0.2407706 0.087306075 -0.022755736 -0.16702117 -0.2232402 -0.10084513 -0.1813384
-0.3443166 -0.051878147 0.3064285 -0.31249353 -0.1212006 -0.1599737 -0.1689268 -0.29565307
-0.033822767 -0.1243631 0.09206997 0.02068806 -0.0980137 -0.29137793 -0.11903868 -0.3247595
0.18281105 -0.23804526 0.0030413156 -0.2687752 -0.05686929 -0.29067552 -0.053641666 0.016089091
-0.08108321 -0.109838545 0.15980025 0.06829629 0.013760217 -0.13475738 -0.34756437 -0.14089844

fc2.weight f4 [300, 400]
00000000: b863 5c3c f494 8b3e c21d ab3d b5c4 0b3e
00000010: ba4c 36be e014 df3d 2cae cdbe dbc0 ba3c
00000020: 3ac7 433e 4271 7abe 2efb 123e 29cd 84be
00000030: 49e2 c7bd c21d 813e 8f4c 6f3e 1ada d1be
00000040: ab85 853c 0f09 91bd 7c60 8b3e ac38 fbbd
00000050: d690 723d 9365 b83d a2d9 263d c751 ce3d
00000060: aa95 b3be a0f8 9abd e957 5c3e df55 97bd
00000070: 06f7 cebe d295 d4bd 3a30 903e d3d9 9dbe
00000080: 9ff0 36be 080a b6be e7c8 14be 7ab4 b7bd
00000090: 7d56 75bd db5f 59bd e862 98be 5786 453e
000000a0: 6273 48bd c2c9 8dbe e54c 773e af3a 943d
000000b0: 4bdc 77be 8693 2cbe 7ce0 b73d ff32 fdbd
000000c0: b393 dc3d a19c d53c 7a2c 44be 3a98 22be
000000d0: 0b44 d4bd 1d33 7dbe df9d ea3c 83f7 d23d
000000e0: 7094 52bd 943a 8f3d 37ce 1ebe 7a9b 9ebe
000000f0: d728 70be c2f5 ad3d 8461 673d 0369 5a3d
00000100: 13b4 39be 6437 033e b8de 823d ddab 48be
00000110: 4c9b 58be c346 7bbd fa22 febc 0199 04be
00000120: 29cd 4d3e 63d0 bfbd d284 5c3e 6320 d03d
00000130: 468c 123e 7bea 4d3e 67dd 813d cc70 993d
00000140: 34ea 5a3e 0f57 49be 421e 30bd fd1d 81be
00000150: 4c99 133e 311d 1ebd 2b8d c0be 367e aabd
00000160: 790e a0be 211e 07bd 5b22 ebbc bea4 4bbe
00000170: 4371 36be 6f8f 47be 2224 cb3d e32a a9be
00000180: f121 84be 0293 26be 9244 8cbe 5821 e6bd
00000190: 6a11 903e 6f4d 8dbd ce72 69bb c13b bebe
000001a0: 2a93 13be 1ed9 a73e 6ba5 83be b2d0 71bd
000001b0: 9fdf 20be 24aa ae3d c691 81bc d769 3fbe
000001c0: d9b2 7abd 23d8 e83d ddfd 8cbe bfb2 83bd
000001d0: 2a70 4bbd 5c38 aa3e 69da 4abd e4d5 cc3d
000001e0: 3232 94be 6ff5 5bbd 7b0d f93c a836 d43d
000001f0: 039c fdbc 3696 b73d 3626 323e 4a87 eabd
00000200: 0408 1ebe efd9 c03d e369 b0be 4288 363e
00000210: 80ee 363e 64d1 82be c942 b33d ffef 2fbe
00000220: 01f0 e33c c337 00be d35d 54be fc9e eabc
00000230: cbac e6bd cdde a3be ef9b ae3e 9c27 013e
00000240: 0ea5 d03e 8f9c aabd 4603 89be e5c1 06be
00000250: d305 833d 3e8d 71bc afdc a63c 8963 a0bc
00000260: 6cd6 233d dd19 70be e11d 91bc 4f0a b2bd
00000270: 8f2b d93d cb60 58bd 8cbc a9bd 09ca 5bbd
00000280: 301b a6be a803 7a3d b383 ce3d 540e b5bd
00000290: 9410 00be cf58 203e a7b3 24be 1e8e 5e3e
000002a0: 8370 233d 88a2 9dbc 5f19 d5bd 7429 a7be
000002b0: d8ce 9cbc fc74 e53b 3afd e8bd 3903 e5bd
000002c0: 9a36 94bd 5097 85bd b437 f4bd 5e81 e8bd
000002d0: 97ac e3bd f7df 1b3e ab42 ccbe 6dda 833e
000002e0: ff07 993b b2dd 6a3d 462a 06bd eaa8 b23d
000002f0: 8f88 523d 0936 563e 5bfb 6c3e ed82 8fbe
00000300: 6915 32be 6a6c 2d3e c8a7 7ebe d433 3fbe
00000310: e243 933c d52e 943b a4d6 54bd 03b8 5b3e
00000320: 9136 efbd 1573 fabd fa5b 6dbe 8902 5ebe
00000330: 6d60 303c 0579 283d d663 50be 71ea a0bd
00000340: 7892 853e b849 e8bd f09f b0bd 893f 523e
00000350: 9b54 713e 4a4a 96be 0b9a 47bd 9679 1bbe
00000360: 1bf3 a1bd 60e1 f93d 665c aabc 66b5 273e
00000370: 8d22 1abe 1fa5 d13d 70cb 0c3e 8753 65be
00000380: 0bc5 bb3d eb1b 5b3b c781 f7be 14eb 3abe
00000390: 3834 3abd 86b9 2bbe b960 04be a631 06be
000003a0: ad1e ac3d b833 c0be b217 513e 3033 84be
000003b0: d2b3 723e 3a85 063e 8c83 e9bd 4f95 8cbe
000003c0: 6c6c 543e d8ba 05be f2b1 05be bfaf 7ebe
000003d0: f31c 2a3b d0d8 1fbc ed4b f9be 08a8 e43d
000003e0: ba84 ee3e e4ad 883e f81d 9abd 6bf3 e8bd
000003f0: 9106 61be e402 193e 6901 21bd 0a11 003e
0.013451509 0.2726208 0.08355285 0.13649257 -0.17802706 0.108926535 -0.40171945 0.022797039
0.19118968 -0.24457267 0.1435363 -0.25937775 -0.09759957 0.25218016 0.23369049 -0.4098671
0.01629909 -0.07081806 0.2722205 -0.12266669 0.059220158 0.09003749 0.040734895 0.100741915
-0.35075122 -0.07566953 0.2151791 -0.073894255 -0.4042284 -0.103801385 0.28161794 -0.3083025
-0.17865227 -0.35554528 -0.14529763 -0.0896997 -0.059896935 -0.05306993 -0.2976296 0.19289528
-0.048938163 -0.27692991 0.24150427 0.072377555 -0.24205129 -0.1685315 0.08978364 -0.12363242
0.10770359 0.026075663 -0.19157591 -0.15878382 -0.10364541 -0.2472653 0.028639732 0.10301115
-0.051411092 0.06993595 -0.15508352 -0.30977994 -0.23453079 0.0849414 0.056489483 0.053322803
-0.18135099 0.12814099 0.063901365 -0.1959681 -0.21152991 -0.06134678 -0.031022537 -0.12948991
0.20097794 -0.093659185 0.21535042 0.10162427 0.14311323 0.20108978 0.06341057 0.074922174
0.21378404 -0.19662116 -0.042997606 -0.25218192 0.14413947 -0.038602058 -0.37607703 -0.08324854
-0.31261042 -0.032987718 -0.028702905 -0.19887063 -0.17816643 -0.1948831 0.09919001 -0.33040532
-0.25807145 -0.16267017 -0.27396065 -0.112368286 0.28138286 -0.06899535 -0.0035621407 -0.37154964
-0.14411607 0.32782835 -0.2571214 -0.059036918 -0.15710305 0.085285455 -0.01581658 -0.18692718
-0.06120572 0.1136935 -0.27537432 -0.064305775 -0.049667515 0.33246124 -0.0495247 0.10001734
-0.28944546 -0.05370086 0.030401936 0.10361987 -0.030958181 0.08964197 0.17397389 -0.114515856
-0.15432745 0.094165675 -0.34455785 0.17825416 0.17864418 -0.25550377 0.08752973 -0.17181395
0.027824404 -0.12521271 -0.20738916 -0.028640263 -0.112634264 -0.3200592 0.34103343 0.12612766
0.40750927 -0.083306424 -0.2676031 -0.13159902 0.06397595 -0.014743147 0.020368902 -0.019578712
0.03999941 -0.23447366 -0.017714443 -0.086933725 0.10604011 -0.052826684 -0.082879156 -0.053659473
-0.32442617 0.061038643 0.100837134 -0.088406235 -0.12506324 0.15658878 -0.16084157 0.21733901
0.03990222 -0.01924254 -0.1040523 -0.32648814 -0.0191416 0.007002471 -0.11376424 -0.11182255
-0.07236977 -0.06523001 -0.11924687 -0.113528 -0.11116903 0.15222155 -0.39894614 0.25752583
0.0046701427 0.05734033 -0.03275516 0.08723624 0.051399764 0.2091905 0.2314276 -0.28029576
-0.1739098 0.16935888 -0.24868691 -0.18672115 0.017976705 0.0045221844 -0.05196251 0.21456914
-0.116803296 -0.122289814 -0.23179618 -0.21680655 0.010765177 0.04113104 -0.20350584 -0.07857216
0.2608831 -0.11342186 -0.08624256 0.20532049 0.2356743 -0.29353553 -0.04873089 -0.151831
-0.07907697 0.1220119 -0.020796012 0.16377792 -0.15052243 0.102365725 0.1374948 -0.22395144
0.09168442 0.0033433388 -0.483412 -0.18253738 -0.045459956 -0.1676999 -0.12927522 -0.13104877
0.084042884 -0.37539458 0.20419195 -0.25820303 0.23701409 0.1313676 -0.11402044 -0.27457663
0.20744485 -0.13059556 -0.13056162 -0.2487173 0.0025957196 -0.009756282 -0.4869074 0.11164862
0.46585637 0.26695168 -0.07525247 -0.11374553 -0.21975161 0.14942509 -0.039307985 0.125065

fc2.bias f4 [300]
00000000: 889a 38bc 14fd 2fbe 422c 4cbe 20a8 65bd
00000010: 04f1 ebbd 0948 9dbd abf6 81bd 06ca 15be
00000020: c35e 73be 6ae1 90bd 9f3b a1bd 1ae2 8cbd
00000030: c7c7 0d3d 740d 36bd 6020 81be 557d cebc
00000040: e709 41bd 2406 92bc fb0a 8cbd 8874 1ebe
00000050: 42c4 2b3d 15f9 1a3e 1ced bebd 070b 8dbe
00000060: 6282 ea3d e4ec 1fbd 42cc d53c f6a4 32be
00000070: 10d8 823d 2e37 dbbd 3150 04be 865b 053e
00000080: 9f8f cf3d 35b0 2e3e 5004 f6bd d6a0 09be
00000090: da5e 82bc 67e5 b2bc e0a0 acbd 3a00 febd
000000a0: 347e a03d 6a35 2ebe 0208 2cbe b8ab 4bbe
000000b0: 2569 393e 1fb1 aabd 7008 16bd fd07 debe
000000c0: a4f4 82bd 8d67 a0bd 4308 85be 5f0c 7fbe
000000d0: 4f43 09be f48f 3dbe e7f2 013d 6fad 14be
000000e0: 9eef 0ebe c805 ed3c 41ea bfbd f32f 9dbe
000000f0: cc3d 183b 94ef 84bc 0028 9cbd 4808 b13d
00000100: 226f 863c ecbe 32bd 5a67 8dbd e793 74bc
00000110: e1e0 6c3d 9818 96bd 64eb d2ba 09d0 d4bd
00000120: 4eb9 3bbe 86a3 1bbd 920b 2cbe 5acd b3be
00000130: 3fba 62bd cbb1 51be a576 2dbe d2e6 73bd
00000140: 2c3d 42bd 7b4e 0a3e fdb1 003e 961a 02be
00000150: bd42 a4bd 4221 88be 6b1c b4bd 72e3 a8bd
00000160: 52b6 6dbe 468c a4bd a86d cfbd b48e 61be
00000170: f079 33bc 8bd1 bd3d 32d9 efbc 199c 11be
00000180: a57b 2abd ba11 c5bd 0da0 82bd 2947 b73c
00000190: e186 21bd 3727 813d 0658 a1bd 85e6 003e
000001a0: 284b e7bd 6098 343d 7385 c1bd 4a76 cfbd
000001b0: ab76 08bd bdd7 773d 1811 dcbd 3c92 223d
000001c0: 259a 65bd ef5e 3ebe 7a99 ebbc 1060 0dbe
000001d0: 2886 64be 81dd 65be 8610 12be 981a e33d
000001e0: 8fb9 b7bd 39e9 c3bd cabf bcbd 681a ad3d
000001f0: be51 93bd caa3 f5bd b804 9cbd c306 79be
00000200: a725 593b e926 d1bd 4989 14bc 65fc 193e
00000210: eefe e9bd 3ed9 2dbe 08fb a5bc 70c9 c1bd
00000220: 7c03 a53d fad7 82be 08e3 6eba 4c2f f2be
00000230: 07db 823d e188 c3bd 6c94 0b3d b2f3 9bbd
00000240: 8264 3fbc a16b cbbe 683b d2bd 2395 213a
00000250: 6625 27bd 01a7 09be 1da6 55be ab45 57bd
00000260: 096c 9bbd bd73 4fbd e357 82be 56fe a0bd
00000270: 4ab8 7fbe 8c17 45be db6b 713e ddbe bdbd
00000280: 9629 62be 1728 5abe 2176 b0bc 489f 183d
00000290: 8b28 84be 28a5 77be 619f e0bd 58fe 6bbc
000002a0: 3c0c acbe 7ce9 94bd e62a 34be 92e5 dc3d
000002b0: 8aa8 323e 2cb5 72be 47fa 13be b321 99be
000002c0: 7157 1cbe 69fb 1e3e a784 7fbe 3b87 8bbd
000002d0: 74b7 623d fba3 e4bd fc49 f3bd 21b8 18ba
000002e0: 636f 97b9 174c a2bd a795 453d 19e8 72be
000002f0: 8c66 24be 4d24 f7bd 04f1 dcbc 49f3 dd3c
00000300: 46ed 11be cccb 0dbe c7d8 29be 9944 ce3d
00000310: 81a6 2c3e 602f 32bd 4cb5 e0bb c091 02be
00000320: 44c8 6dbd 77ff 58be 5a6a 4bbe 5e0c 8b3d
00000330: a631 c4bd 5134 01be 5663 af3c 37b3 aebd
00000340: fffa 133d 5798 2ebe 1607 8abd cd76 60bb
00000350: 6d8c 15be 7598 d5bd 6066 1bbe f4d8 53be
00000360: 2844 f2bd ff8b 0abe 379c d3bc a27c 843d
00000370: 6598 6cbe 2439 9dbd 8f72 c8bd 035e e2bb
00000380: 43c2 21be cacd e8bd 30e8 21bd 76e5 80be
00000390: 3c25 863d b233 9ebd 2356 8cbe fc5a af3b
000003a0: 6fee ccbd 2b68 05be 7a05 493c 5949 46be
000003b0: 0f96 00be dbee d4bd f46e 5cbe 5322 b5bd
000003c0: 4790 b3be ff41 14be 1169 453d e27c 49be
000003d0: cfbf bf3d 9ef2 ecbd a738 203e a127 03be
000003e0: 82ba 0dbe 99f1 8d3d 4d90 35be b4d2 debd
000003f0: e994 7e3c 6a4b 7ebd 093d edbd 4394 02bd
-0.011267312 -0.17186385 -0.19938758 -0.05606854 -0.115205795 -0.07679755 -0.06345876 -0.14627847
-0.23766617 -0.07074244 -0.078727 -0.06879063 0.03461435 -0.044446424 -0.25220013 -0.025206247
-0.047128584 -0.017825194 -0.06838032 -0.1547414 0.041935213 0.1513408 -0.09322569 -0.27547476
0.1145065 -0.039044276 0.026098374 -0.1744574 0.06388867 -0.10703884 -0.12921216 0.13023195
0.101348154 0.17059405 -0.12012541 -0.1344026 -0.01591437 -0.021837903 -0.08429122 -0.12402387
0.07836571 -0.17012563 -0.1679993 -0.19889724 0.18106516 -0.083345644 -0.03662914 -0.4336547
-0.06394318 -0.07832251 -0.25982866 -0.24907063 -0.13404582 -0.18511945 0.03172579 -0.14519285
-0.13958594 0.02893342 -0.09370852 -0.30700645 0.0023230193 -0.016227521 -0.07624817 0.08644158
0.016410414 -0.04363911 -0.06904478 -0.014927841 0.05783165 -0.0732891 -0.001609188 -0.10391242
-0.18332407 -0.037997745 -0.16801289 -0.35117608 -0.0553534 -0.20477979 -0.1693979 -0.0595463
-0.04742162 0.135065 0.12567897 -0.12705454 -0.08020542 -0.26587874 -0.08794483 -0.08246507
-0.23214081 -0.080345675 -0.10128337 -0.22027093 -0.010954365 0.09268483 -0.029278371 -0.14219703
-0.041621823 -0.09622522 -0.063781835 0.022372799 -0.03943527 0.06306308 -0.07878117 0.12587936
-0.11293632 0.04409063 -0.094492815 -0.10129984 -0.033316296 0.06050848 -0.10745448 0.03969024
-0.056055207 -0.18590902 -0.028759707 -0.13806176 -0.22316802 -0.22447778 -0.14264116 0.11089057
-0.08970939 -0.09565968 -0.09216268 0.08452302 -0.071933255 -0.11994131 -0.076180875 -0.24318986
0.0033134015 -0.102125 -0.009065934 0.15037687 -0.11425577 -0.16977403 -0.020261303 -0.09462249
0.08057305 -0.25555402 -0.000911281 -0.4730171 0.063894324 -0.09547592 0.034077093 -0.076148406
-0.011681678 -0.39730552 -0.10265237 0.00061638857 -0.04080715 -0.13442613 -0.20864148 -0.052556675
-0.075889654 -0.050647486 -0.25457677 -0.07861011 -0.24972644 -0.19247264 0.235763 -0.0926492
-0.22086176 -0.21304356 -0.021540703 0.037261277 -0.25812182 -0.24184096 -0.10967899 -0.014403902
-0.33603084 -0.07271096 -0.1759449 0.107859746 0.17447105 -0.23701924 -0.14450942 -0.29908523
-0.15267731 0.15525593 -0.24952947 -0.068129025 0.055350736 -0.11164089 -0.11879346 -0.0005825777
-0.00028883954 -0.07924669 0.048238423 -0.2372135 -0.16054744 -0.12067471 -0.026970394 0.027093546
-0.14250669 -0.13847274 -0.165866 0.10071678 0.16860391 -0.04350221 -0.00685755 -0.12750912
-0.058052316 -0.21191202 -0.19864789 0.06789468 -0.09579782 -0.12617613 0.021409672 -0.08530276
0.03612804 -0.170503 -0.06739633 -0.0034250498 -0.1460435 -0.104294695 -0.15175772 -0.2068823
-0.11829406 -0.13529967 -0.025831325 0.06469084 -0.23105009 -0.07676914 -0.09787475 -0.0069081797
-0.15796761 -0.11367376 -0.039528072 -0.25175065 0.06550071 -0.07724704 -0.27409467 0.0053514224
-0.10006415 -0.13028018 0.012269372 -0.19363917 -0.12557243 -0.103971206 -0.215267 -0.088444375
-0.35071012 -0.144783 0.048195902 -0.19676545 0.093627565 -0.11569713 0.15646611 -0.12808086
-0.13840678 0.06930847 -0.17730828 -0.10880032 0.015538433 -0.06208364 -0.11583907 -0.031879675

fc3.weight f4 [4, 300]
00000000: 992d f4be 4250 f23e a39d 583f c51d 823f
00000010: c527 1ebe b49b 9abf 2d3a 3b3e 1403 bdbf
00000020: ec9a 6dbf d651 fabe eaa4 4cbf 273c 53be
00000030: a0dc dc3c 05c0 33bf 0ffe c13f 8bcf 2b3f
00000040: becc 97be 2cf0 613f 8d37 eabf 8950 533e
00000050: a8b4 6c3f 76fc ae3f b753 e43e d386 64be
00000060: f89d 8d3f cdc1 da3e 5141 99bd 641b 24be
00000070: 3d31 b03d e306 a53f 84b4 9f3e 24f1 e1bf
00000080: a9b6 913f 6253 18bf 0ff7 0a3f f3aa 9c3f
00000090: 0cd7 30be 8052 bd3f 07a0 e6bf 7648 8d3f
000000a0: 8d59 f8bf 5473 82bf acbd e53d 52a4 eabe
000000b0: ea3b 51bf dfdf 0dbf 8322 f23f 23b1 953e
000000c0: 134b 123f 21b9 0b3f 9c46 e7be 6040 95be
000000d0: 464f 68be 00a8 50bf f244 f53d 2049 9fbd
000000e0: e253 99be 94dd b6bf d6d3 023f ddeb 283f
000000f0: 862e a53e 461e 933c f37f 003d ce0c 783f
00000100: 1e40 12bf d30b a7bf df06 06bf f5de e1be
00000110: 5ea5 4b3f efbe e33e fdc9 183d 5503 a1bf
00000120: 2101 94bf fa4b 26bf 4358 b93f 7ac8 6bbe
00000130: a47a b9bf 565f 323f 6fcb 343f 88f5 5c3e
00000140: e220 193f d1a6 02c0 613f dabf 7c04 73bf
00000150: 4676 303e b339 ea3f 711c a5be 6c8a de3e
00000160: 2292 84bf d6f3 9d3f 31bc e73e b219 11c0
00000170: 63bc 87bc 682e 113f 2781 613f 3e82 793f
00000180: aa5a 17bc 2617 35bf 8cf5 b9bf 522f f7be
00000190: 57ff 833f 3ecb 4fbf d735 60be 8ccf 943e
000001a0: 4a01 01bf c2e6 a8be d0b3 c93e 1a97 debe
000001b0: b681 fdbe bd9f 95bd 8957 413c bf44 7a3e
000001c0: ede0 943e eabd 6b3d e0fb c53e 55f8 e0be
000001d0: 7b05 b43e 0969 dc3e f720 3abf d11c bcbf
000001e0: 6ac0 3a3e 0a2a 70bf 8029 59bf 755e 8d3f
000001f0: 6069 19be c61e 14bd 6853 a23e cd74 1fbe
00000200: 32d8 12be 332f 683f e9cc 83be e2d1 aebf
00000210: 9896 33bf d9e2 f9bf 5148 0ebf d7eb be3e
00000220: d9e8 673f b716 01be d4e8 993e 553b cbbe
00000230: 5e12 f1bf ca14 d33e 88b5 93bf c181 ba3f
00000240: c0cf 9b3e d3dd 3bbf 64ec 933f d74d 5c3f
00000250: 1f50 89bf 3a23 ca3c c76f 74be 1ea3 79bf
00000260: fbcd db3e 09bc de3d 6bee b8bf 0ca4 80be
00000270: 4fa4 24bf 20cb 1cbe 8187 d23e b1fa c9bf
00000280: d193 043f 1e64 d8bf bfa3 8b3e bc9e 13bf
00000290: 0430 f0be 9f73 80bf 4660 a6bd 1bb2 133e
000002a0: 0c9a 32bf 646f 6dbe e981 8a3e 4334 743f
000002b0: 3669 363f c38d 323f 6526 edbe 129b d4bf
000002c0: 7683 d3be 90c7 eb3e 17a3 f73d 3864 293f
000002d0: 1595 4d3f 0352 d8be dc9e 62bd 21b8 2a3e
000002e0: 570a 99be b665 06bf d5af 053f a7aa 81be
000002f0: 8fa8 913f d395 9abe a834 3c3f f3c5 c93e
00000300: dee4 adbe af19 f93e 9aee d6be db75 f6be
00000310: b9e1 11bf 2cac 4e3f 2fa6 afbd c8ba 573f
00000320: 5af1 df3f 5ee4 d6bf 17e9 71bf 1b01 6b3f
00000330: 11c4 723e 9280 28bf 83fc 0940 9670 85be
00000340: ee1e 093f 0cfd 0c3f 764d c63e d4d3 6abf
00000350: 91ac 4cbe a84d 0a3f 297f 6fbf bf90 42be
00000360: 90f1 583f b732 e7be 4c17 4dbf 9137 16bf
00000370: f2fa 0f3f c30e 90be 345e d13f 84c4 34bf
00000380: 7e2a 66be 4ea7 bd3d 34ce 4a3e 719e 68bd
00000390: c271 cf3f 9c94 233e ef47 67be 8972 6cbf
000003a0: 9b15 3bbe aa12 143f 4802 1abf 0338 08bb
000003b0: 6adb 93bd e646 213f 2698 9d3d 36b0 0a3f
000003c0: 1e79 9f3e dfa4 2d3f 0f45 12bf 4ce8 803f
000003d0: c204 82bf 992d 51bf 3cdf 2b3d fb68 9b3d
000003e0: 04ea 7cbd 9f42 1dbf 6059 80be 2e99 c53e
000003f0: 710d b4bf d7c5 fbbd 9bfb 813f 63d3 c0be
-0.47691038 0.47326857 0.84615535 1.0165335 -0.15444858 -1.2078767 0.18283911 -1.4766564
-0.9281452 -0.4889056 -0.7993914 -0.20628415 0.026960671 -0.70214874 1.5155658 0.6711356
-0.29648393 0.882571 -1.8298203 0.2063619 0.9246316 1.3670795 0.4459512 -0.22317056
1.1063833 0.42725983 -0.07483161 -0.16026074 0.086031415 1.2892727 0.3119241 -1.7651715
1.1383868 -0.5950223 0.5428323 1.223967 -0.17269534 1.4790802 -1.8017586 1.1037738
-1.9402329 -1.0191445 0.11217818 -0.4582849 -0.81732047 -0.55419725 1.8916782 0.29236707
0.57145804 0.5457936 -0.45171058 -0.29150677 -0.2268649 -0.8150635 0.11976041 -0.07777619
-0.2994681 -1.428637 0.51104486 0.659849 0.32262057 0.017958771 0.031372022 0.9689454
-0.57129085 -1.3050483 -0.52354234 -0.44115415 0.79549205 0.44481608 0.037302006 -1.2579142
-1.1562845 -0.6495968 1.448006 -0.23025694 -1.4490552 0.6967672 0.70622915 0.21578038
0.598158 -2.0414317 -1.7050592 -0.9492872 0.17232618 1.8298858 -0.32248262 0.43464983
-1.0357096 1.2340038 0.45260766 -2.2671933 -0.016569322 0.56711435 0.88087696 0.9746436
-0.009237925 -0.70738447 -1.452806 -0.4827829 1.0312299 -0.811695 -0.21895538 0.29064596
-0.5039259 -0.32988554 0.39395 -0.43474656 -0.49513024 -0.07305858 0.011800655 0.24440287
0.29077855 0.057554163 0.38668728 -0.43939462 0.3516043 0.43048885 -0.7270655 -1.4696294
0.18237463 -0.93814147 -0.8482895 1.1044451 -0.14981604 -0.03616216 0.3170426 -0.155719
-0.14340284 0.9069702 -0.25742272 -1.3657801 -0.7015166 -1.9522353 -0.55579096 0.37289307
0.9058967 -0.12606321 0.30060446 -0.39693704 -1.883373 0.41226798 -1.1539774 1.4570848
0.30431938 -0.7338535 1.1556516 0.86056274 -1.0727576 0.024675 -0.23870765 -0.9751452
0.42930588 0.108757086 -1.4447759 -0.25125158 -0.64313215 -0.15311861 0.41119006 -1.577963
0.5178805 -1.6905553 0.27273366 -0.57664084 -0.46911633 -1.0035285 -0.081238315 0.1442341
-0.69766307 -0.23187023 0.2705224 0.95392245 0.7125429 0.6974756 -0.46318355 -1.6609824
-0.41311234 0.46050692 0.12091654 0.66168547 0.80305606 -0.4225007 -0.05532728 0.16671802
-0.298907 -0.5249895 0.52221423 -0.2532551 1.1379565 -0.30192432 0.7351785 0.39408836
-0.33963674 0.48652408 -0.41978914 -0.48136792 -0.5698505 0.80731463 -0.08576619 0.8426938
1.749553 -1.6788442 -0.9449629 0.9179856 0.23707606 -0.6582118 2.156037 -0.2606246
0.5356282 0.5507362 0.38730973 -0.91729474 -0.19987704 0.54024744 -0.93553406 -0.19000529
0.84743595 -0.4515588 -0.80113673 -0.5867854 0.5624229 -0.28136262 1.6356874 -0.7061236
-0.22477147 0.092604265 0.19805223 -0.056791726 1.6206591 0.15974659 -0.22586034 -0.92362267
-0.1826996 0.5784098 -0.6015973 -0.0020785339 -0.07219584 0.6299881 0.07695036 0.54175127
0.31147093 0.678297 -0.57136625 1.0070891 -1.0157702 -0.817102 0.04196094 0.07588383
-0.061746612 -0.6142978 -0.25068188 0.3859343 -1.4066602 -0.12293594 1.0154909 -0.37661275

fc3.bias f4 [4]
00000000: 0b5e 38bd 66c1 8a3d 45d4 58be dc47 e53b
-0.04501156 0.06775169 -0.21174724 0.0069970917
