checkpoint_actor_0.pth (torch_old, 541413 bytes, 6 tensors)

fc1.weight f4 [400, 33]
0	0x3e0c19b8	0.13681686
1	0x3c5da1e9	0.013527372
2	0xbe015a31	-0.12632062
3	0xbd597b6a	-0.053096212
4	0x3b8489fa	0.0040447684
5	0xbd599544	-0.053120866
6	0xbd59109f	-0.052994367
7	0x3d2d34b4	0.04228659
8	0x3df7c6f6	0.12098496
9	0x3c7c2350	0.0153892785
10	0x3ccaecd4	0.024771132
11	0xbc5c808d	-0.013458383
12	0xbd50e267	-0.050997164
13	0xbe17ccae	-0.14824173
14	0xbd7543cc	-0.05987911
15	0x3dd5540b	0.104164205
16	0xbd3a3987	-0.04546502
17	0x3dc32dea	0.09530242
18	0xbd7cbe6f	-0.06170505
19	0xbdaa8b6f	-0.08327376
20	0xbd107570	-0.035268247
21	0x3d1d8014	0.038452223
22	0xbd0c0e96	-0.034193598
23	0xbd23d077	-0.03999373
24	0xbd251a4e	-0.04030829
25	0x3d0b5779	0.034018967
26	0x3dd1d603	0.102458976
27	0x3e06367b	0.1310672
28	0xbd7aefee	-0.06126397
29	0xbcabd1c3	-0.020974046
30	0xbe43230d	-0.1905634
31	0xbcf089d7	-0.029362602
32	0xbfa84b4e	-1.3147981
33	0x3d85c4ef	0.06531703
34	0xbd0c1c7f	-0.034206863
35	0x3ca7aa1e	0.02046686
36	0x3d1014e1	0.03517616
37	0xbdb5f2e3	-0.088842176
38	0x3b46634b	0.0030271586
39	0x3b775c9b	0.0037744406
40	0x3e323644	0.17403513
41	0x3db5a993	0.08870234
42	0xbd245bde	-0.040126674
43	0xbd002855	-0.031288464
44	0x3d3201d4	0.043458775
45	0xbd9ec4be	-0.07752369
46	0x3dfdc7d9	0.123916335
47	0x3e3c744e	0.18403742
48	0xbd8ee453	-0.06977143
49	0x3e8c6e9e	0.27428144
50	0x3d512ef4	0.05107017
51	0x3c3f43d5	0.011673887
52	0xbd87638f	-0.06610786
53	0x3dcfb713	0.101423405
54	0xbd5ae52b	-0.053441208
55	0xbb8228c7	-0.003972146
56	0x3da84912	0.08217062
57	0x3cb57c0b	0.022153875
58	0x3c9f9094	0.01947812
59	0xbdcff8e5	-0.10154895
60	0x3e597d55	0.21239217
61	0x3e17fc06	0.14842233
62	0xbd3b6035	-0.045746047
63	0xbe44e18b	-0.19226663
64	0xbd102a4e	-0.035196595
65	0x3ed31d48	0.41233277
66	0x3e7cc995	0.24686272
67	0xbd9a6245	-0.07538275
68	0xbe757313	-0.23969679
69	0xbd108788	-0.035285503
70	0xbcb9269c	-0.022601418
71	0x3c619e76	0.01377069
72	0xbd080c24	-0.033214703
73	0xbdd57f45	-0.10424665
74	0xbcfe8c4d	-0.03107276
75	0x3b91c191	0.0044481237
76	0x3d1afd1c	0.03783904
77	0x3ded0cae	0.11574684
78	0xbd996117	-0.074892215
79	0xbdb63743	-0.08897259
80	0x3e07f2c5	0.13276203
81	0x3db51d91	0.0884353
82	0xbc7c37ae	-0.015394134
83	0xbd4f412a	-0.050599255
84	0x3d550781	0.05200911
85	0xbcc5a094	-0.024124421
86	0xbd58ecdd	-0.052960265
87	0xbdaead47	-0.08529144
88	0xbdb3c35c	-0.08777496
89	0x3cc3e491	0.0239127
90	0x3dbfcd22	0.09365298
91	0x3cc4b5c1	0.024012448
92	0xbdcd55fe	-0.10026167
93	0xbd022623	-0.03177465
94	0x3e0d8966	0.13821945
95	0xbcc9f1c3	-0.024651414
96	0x3da01ef7	0.07818406
97	0x3d05b049	0.03263882
98	0x3f1474a5	0.57990485
99	0xbd68a6d4	-0.056799725
100	0x3dd6771e	0.104719386
101	0xbd08456f	-0.033269342
102	0xbcc932da	-0.02456038
103	0x3e0f358c	0.1398527
104	0xbd5aacf3	-0.053387593
105	0x3c040ee8	0.008060195
106	0x3d875a3f	0.0660901
107	0x3d24dc4e	0.04024916
108	0x3d4f4073	0.050598573
109	0x3c713d42	0.014724078
110	0x3c759576	0.014989248
111	0x3d07a794	0.0331188
112	0x3c85390c	0.016262554
113	0x3c89157c	0.016733877
114	0x3c91928d	0.017770076
115	0xbb0a059a	-0.0021060468
116	0xbca0e365	-0.01963968
117	0x3d390371	0.045169298
118	0xbd2671c9	-0.040635858
119	0xbab85b9e	-0.001406539
120	0xbca3db25	-0.020001957
121	0x3cadd7c5	0.021221051
122	0x3d38ae0c	0.04508786
123	0xb9e0d73e	-0.00042884977
124	0xbbcbeacf	-0.0062230597
125	0x3c09997f	0.008398413
126	0xbe039e2f	-0.12853311
127	0xbe29d013	-0.1658328
128	0x3c1410d4	0.009037215
129	0x3dc78ae9	0.09743292
130	0x3d2957a7	0.041343357
131	0x3f9a12bb	1.2036966
132	0xbe75e4cd	-0.24013062
133	0xbd836554	-0.06415811
134	0xbdf79d61	-0.120905645
135	0xbdb8de7e	-0.09026812
136	0xbdf9b9b0	-0.1219362
137	0xbe472c4a	-0.19450489
138	0xbd97d360	-0.074133635
139	0xbc918ead	-0.017768228
140	0xbe24ad79	-0.160818
141	0x3dafaf95	0.085784115
142	0xbbf02fa5	-0.0073298984
143	0x3dc55915	0.09636132
144	0xbda13dcd	-0.07873116
145	0x3cae66b3	0.021289205
146	0x3df34bb9	0.11879677
147	0x3e0c3f11	0.13695933
148	0xbcd0adf8	-0.02547358
149	0xbd0dc67b	-0.034613114
150	0xbdfbcebe	-0.12295292
151	0x3c83f304	0.01610709
152	0xbd8c735d	-0.06857941
153	0xbd7b3b32	-0.06133575
154	0x3e193369	0.14961018
155	0x3d9cc2b3	0.076543234
156	0x3e111164	0.1416679
157	0x3ce14c7a	0.027502287
158	0x3db89d79	0.090144105
159	0x3e238526	0.15968761
160	0x3d2b4ea2	0.041823037
161	0xbca071c3	-0.019585496
162	0xbda0e14e	-0.078554735
163	0x3cc876b2	0.02447066
164	0xbdd30061	-0.10302807
165	0xbe1f0b1b	-0.1553158
166	0xbd74b910	-0.0597468
167	0xbd1ed81d	-0.03878032
168	0xbd3a1487	-0.045429733
169	0xbdc56473	-0.096383
170	0xbcba15c4	-0.022715457
171	0xbd9b3576	-0.07578556
172	0xbdb256c7	-0.08707958
173	0xbe3d10d8	-0.18463457
174	0xbdb144c2	-0.08655693
175	0xbd15e472	-0.036594816
176	0x3d91174f	0.07084524
177	0x3d0bd610	0.034139693
178	0xbae4a7ab	-0.0017444988
179	0x3e4bf2d9	0.19916858
180	0x3dbf0adb	0.093282424
181	0x3d9335cb	0.071879946
182	0xbdd5133a	-0.10404058
183	0xbdd3c382	-0.103400245
184	0x3dc68b03	0.09694483
185	0x3e11dd76	0.14244637
186	0xbd88c450	-0.06678069
187	0xbd12f5ac	-0.035878822
188	0x3c1d9b94	0.009619612
189	0x3e21752b	0.15767352
190	0xbcec935d	-0.028878862
191	0x3df117b5	0.117721
192	0x3e0b1b70	0.13584685
193	0x3d6b049b	0.05737744
194	0x3d24ca23	0.040231835
195	0xbd619178	-0.05507037
196	0xbcf916fd	-0.03040647
197	0xbf34a24c	-0.70560145
198	0xbbcdf36d	-0.006285122
199	0x3e55df0f	0.20885871
200	0xbd4d75f6	-0.050161324
201	0x3d95688e	0.07295333
202	0xbc980d22	-0.01856095
203	0xbd99456e	-0.07483946
204	0x3c162871	0.009164915
205	0xbd83cccd	-0.06435547
206	0x3dd8f65c	0.10593864
207	0xbd88ed64	-0.06685904
208	0xbdd3dabc	-0.10344455
209	0xbd2b321a	-0.041795827
210	0x3d1cb8b0	0.03826207
211	0xbddf466e	-0.10902105
212	0x3ddd3251	0.10800613
213	0x3d84081a	0.06446858
214	0xbe322814	-0.17398101
215	0x3c322d70	0.010875091
216	0x3d09e0b7	0.03366157
217	0xbe25b5a2	-0.16182569
218	0xbd6b1c03	-0.05739976
219	0xbd080a88	-0.03321317
220	0xbdca18d8	-0.0986802
221	0xbd96dd2d	-0.07366405
222	0xbcd818bd	-0.026378984
223	0x3c978d0e	0.018499877
224	0xbcf0fc0e	-0.029417064
225	0x3dfdc66e	0.12391363
226	0x3e4a8bc9	0.19779886
227	0x3d1de5f3	0.038549375
228	0xbd715746	-0.05892112
229	0x3c74a574	0.014932025
230	0xbe94c025	-0.29052845
231	0x3e46c073	0.19409351
232	0x3c4d7b1a	0.012541557
233	0xbdf208d5	-0.11818091
234	0xbd770aa1	-0.06031287
235	0x3d8a6dd1	0.06759227
236	0xbccd4fb2	-0.025062416
237	0x3d74e7d0	0.059791386
238	0x3d050965	0.032479662
239	0xbe00394b	-0.12521856
240	0x3c5c38d8	0.013441287
241	0x3d728872	0.059212156
242	0x3b4835a6	0.0030549555
243	0xbdb30d5f	-0.08742785
244	0xbe308ccf	-0.17241214
245	0xbd753f10	-0.059874594
246	0x3e45ff32	0.1933563
247	0xbd8242c2	-0.06360389
248	0x3d633cf1	0.05547804
249	0xbc9cbba5	-0.019132445
250	0xbdb65ed9	-0.089048095
251	0xbdf13063	-0.11776807
252	0xbd9c76df	-0.0763986
253	0xbbe6b1e9	-0.0070402515
254	0xbe06c663	-0.13161616
255	0xbd6775ff	-0.056509014

fc1.bias f4 [400]
0	0x3c12afca	0.008953044
1	0xbd77bf9d	-0.06048547
2	0x3e22bd66	0.15892562
3	0x3e5b2741	0.21401693
4	0xbca97edf	-0.02069038
5	0x3d9215d2	0.07133068
6	0x3d339eb8	0.043852538
7	0xbe999a52	-0.3000055
8	0xbc3788d0	-0.011202052
9	0xbe5543ae	-0.20826599
10	0xbd95edda	-0.07320757
11	0xbd3d1d2b	-0.046170395
12	0xbe5eddf9	-0.21764363
13	0xbea4acaa	-0.32162982
14	0x3da53424	0.08066586
15	0x3e335a30	0.17514873
16	0xbdbd20f7	-0.09234803
17	0xbe47ce3d	-0.19512267
18	0xbed8fa98	-0.42378688
19	0x3d01e836	0.031715594
20	0xbe0444a8	-0.12916815
21	0xbe18f462	-0.14936975
22	0x3d993608	0.07481009
23	0xbe0548a2	-0.13015988
24	0xbe836b61	-0.2566786
25	0xbe9390b2	-0.2882133
26	0xbe5d8047	-0.21630965
27	0x3e2f1be3	0.17100482
28	0xbdb1b88e	-0.08677779
29	0xbebc0618	-0.367234
30	0xbe2a5454	-0.16633731
31	0x3bfdd6d7	0.007746558
32	0x3c30be49	0.010787555
33	0xbdc923a3	-0.0982125
34	0xbe35d6b5	-0.17757685
35	0xbe81142f	-0.2521071
36	0xbe333932	-0.17502287
37	0xbe8d0018	-0.27539134
38	0xbdf6b2bc	-0.120458096
39	0xbe96d5af	-0.29459903
40	0x3dfc281d	0.123123385
41	0xbe29afaf	-0.16570924
42	0x3e8da778	0.2766683
43	0xbe9baf28	-0.3040707
44	0xbe9d5e92	-0.30736214
45	0xbe950f82	-0.29113394
46	0x3d20b3a4	0.03923382
47	0x3d3b7bbe	0.045772307
48	0xbde809f6	-0.11330025
49	0xbee32703	-0.443657
50	0xbe6c5844	-0.23080546
51	0x3b84aa1f	0.0040486003
52	0xbe99a595	-0.30009142
53	0x3d498469	0.04919854
54	0xbd4f6aa4	-0.05063881
55	0xbcd920e7	-0.026504947
56	0x3c9f81ab	0.01947101
57	0xbd46e424	-0.048557416
58	0xbe164d89	-0.14678015
59	0xbe36aaf8	-0.17838657
60	0xbd40b885	-0.04705097
61	0xbde2e662	-0.11079098
62	0xbe3dddb3	-0.18541603
63	0xbe6f6d7c	-0.23381609
64	0xbecae9ab	-0.396314
65	0x3e23e5a5	0.16005571
66	0xbea435a4	-0.32072175
67	0xbe56fe78	-0.2099551
68	0xbe93e5a7	-0.28886148
69	0xbcc031da	-0.023461271
70	0xbe6e6636	-0.23281178
71	0xbdeb4685	-0.1148806
72	0x3e0a0a8f	0.1348059
73	0xbd96c224	-0.07361248
74	0x3e4e0024	0.20117241
75	0xbeee4316	-0.46535558
76	0xbd957cdc	-0.07299206
77	0xbea9fc4c	-0.332003
78	0xbe91ff97	-0.28515312
79	0xbdbf4b85	-0.09340576
80	0xbeafd9d1	-0.34345868
81	0x3e13018e	0.14356062
82	0xbe3fc08f	-0.18725799
83	0xbc43e78f	-0.011957063
84	0xbe77be3f	-0.24193667
85	0xbd22c01e	-0.039734
86	0x3a8796b8	0.00103446
87	0xbd2c7f96	-0.042113863
88	0xbdf69fe6	-0.12042217
89	0xbe8e2cd1	-0.27768567
90	0x3e938e43	0.28819475
91	0xbdee6ece	-0.11642228
92	0xbe002893	-0.12515478
93	0xbe830deb	-0.25596556
94	0xbe95d176	-0.2926137
95	0xbd7baf16	-0.06144627
96	0x3e00da23	0.12583213
97	0xbea69c8e	-0.32541317
98	0xbc9b4a6e	-0.01895639
99	0xbeb8253b	-0.35965905
100	0xbead29af	-0.33820865
101	0x3da67f70	0.081297755
102	0x3cd00966	0.025395107
103	0xbd36c43b	-0.044620734
104	0x3e47113e	0.19440171
105	0xbdfc9d92	-0.12334742
106	0x3dbc373d	0.09190223
107	0x3e5c59ab	0.2151858
108	0xbea38b3a	-0.3194216
109	0xbec0ad15	-0.3763205
110	0x3e37ba8a	0.17942253
111	0xbe80c2ab	-0.2514852
112	0xbd27380b	-0.04082493
113	0xbf01bfe7	-0.50683445
114	0x3dd8ff3b	0.10595556
115	0xbe826fa9	-0.25475815
116	0xbeee63aa	-0.46560413
117	0x3e88add7	0.2669513
118	0x3de9d5a8	0.11417705
119	0xbe597fe7	-0.21240197
120	0xbd045b8b	-0.032313865
121	0xbeb6fc87	-0.35739538
122	0xbdd735e6	-0.10508327
123	0xbd947527	-0.072489075
124	0xbef00362	-0.4687758
125	0x3db5f539	0.08884663
126	0x3db5b69f	0.08872723
127	0x3e829bde	0.25509542
128	0xbf21a70e	-0.6314553
129	0x3e262bcc	0.16227645
130	0x3cfbf786	0.030757677
131	0x3e061b68	0.13096392
132	0x3eb815d0	0.35954142
133	0x3c31eb1b	0.010859276
134	0xbe2ecdb2	-0.17070654
135	0x3d9eaa80	0.07747364
136	0xbebb977c	-0.3663901
137	0xbdd8258f	-0.10554039
138	0xbe937fa9	-0.28808334
139	0xbe98543a	-0.2975176
140	0xbe894693	-0.26811656
141	0x3e388710	0.18020272
142	0xbe0f031a	-0.13966027
143	0xbcffa748	-0.031207696
144	0xbd860e29	-0.065456696
145	0xbf067c06	-0.52532995
146	0xbe2c886c	-0.16848916
147	0x3996b79c	0.0002874703
148	0xbdd6e05a	-0.104920104
149	0xbdad25c9	-0.084544726
150	0xbe4dbb99	-0.20091094
151	0x3e278efa	0.16363135
152	0x3c11fb12	0.0089099575
153	0x3cf6faf1	0.030148955
154	0x3e8e241f	0.27761933
155	0xbde04c71	-0.1095208
156	0xbd8cd3e7	-0.06876355
157	0xbdc2511e	-0.09488128
158	0xbe3ccb77	-0.1843699
159	0xbe2c213d	-0.16809554
160	0x3da7d91a	0.08195706
161	0xbdd757e2	-0.10514809
162	0xbddc493a	-0.10756154
163	0xbefb822d	-0.49122754
164	0xbc808519	-0.015688466
165	0xbdcd7cc9	-0.100335665
166	0xbf0021ac	-0.5005138
167	0xbec0148a	-0.3751567
168	0x3e1798ae	0.14804336
169	0xbc06483d	-0.008195934
170	0x3e1477c9	0.1449882
171	0xbe121c20	-0.14268541
172	0xbe35da27	-0.17759
173	0xbe510c34	-0.20414811
174	0xbdfebc95	-0.12438313
175	0xbce2baa8	-0.027676895
176	0xbdea2465	-0.11432723
177	0xbe04261f	-0.12905167
178	0x3ec6734c	0.3875984
179	0xbd3c9272	-0.0460381
180	0xbe3f2ef0	-0.18670249
181	0xbe2161db	-0.15759985
182	0xbe7deb90	-0.24796891
183	0x3e009731	0.12557675
184	0x3ce4f472	0.027948592
185	0xbd981475	-0.07425777
186	0x3e095266	0.13410339
187	0xbe43ebf8	-0.19132984
188	0xbe2ec322	-0.17066625
189	0x3ea13bd6	0.31490964
190	0xbd950668	-0.072766125
191	0xbd0bf639	-0.034170363
192	0xbeb2941d	-0.34878626
193	0xbe155c90	-0.14586091
194	0xbdb60251	-0.088871606
195	0xbe947b8c	-0.2900051
196	0xbdc0b100	-0.0940876
197	0xbe549174	-0.20758611
198	0xbd4986a5	-0.049200673
199	0xbeb31c12	-0.34982353
200	0xbe982583	-0.2971612
201	0xbdd874d2	-0.10569157
202	0xbe0955d4	-0.13411647
203	0xbd4ca26d	-0.04995959
204	0xbe0287f9	-0.12747182
205	0xbe0d0360	-0.13770819
206	0xbebf22b4	-0.37331164
207	0x3e838b54	0.25692236
208	0xbcbb255c	-0.022844963
209	0xbe815d54	-0.25266516
210	0x3d46335d	0.048388828
211	0xbe0d4a91	-0.13797976
212	0xbed61e6c	-0.41820085
213	0xbdcdaa2c	-0.10042223
214	0xbe05134d	-0.12995644
215	0xbdf66e60	-0.12032771
216	0x3e5e0a1b	0.21683542
217	0xbe64e8d4	-0.22354442
218	0x3e489346	0.1958743
219	0xbdd9d32b	-0.1063598
220	0xbdfccddf	-0.12343954
221	0x3b5b2f06	0.0033444776
222	0x3c5cfe20	0.0134883225
223	0xbe813962	-0.25239092
224	0x3e4b7f41	0.19872762
225	0x3cfddee4	0.030990072
226	0x3e2d5291	0.16926028
227	0xbe8f5299	-0.27992705
228	0xbeada993	-0.33918437
229	0xbec2eda5	-0.38071933
230	0xbec23901	-0.37934116
231	0xbdede2c9	-0.116155215
232	0xbea71f04	-0.3264085
233	0x3deec957	0.11659496
234	0x3dfc8d66	0.12331657
235	0x3d549468	0.051899344
236	0xbd367e21	-0.04455388
237	0xbeae4ccf	-0.34042975
238	0xbe673e32	-0.2258232
239	0xbe5cf936	-0.21579441
240	0x3dbab6c7	0.09116893
241	0xbe5e8a83	-0.21732526
242	0x3e0ea7f9	0.13931264
243	0xbe1429ac	-0.14469022
244	0x3d9489db	0.07252856
245	0xbedd0fb6	-0.4317605
246	0x3ebab8df	0.3646917
247	0xbd8b99be	-0.06816433
248	0x3dc67013	0.09689345
249	0xbe27ef4b	-0.16399877
250	0xbd881b7c	-0.06645867
251	0xbdec14f9	-0.11527438
252	0x3e0f5d41	0.14000417
253	0xbdc86cf7	-0.097864084
254	0xbddfeef9	-0.10934252
255	0xbda41ec2	-0.08013679

fc2.weight f4 [300, 400]
0	0x3d4da162	0.050202735
1	0x3e0dbe98	0.13842237
2	0xbcabc939	-0.020969974
3	0xbd8664f4	-0.06562224
4	0xbd639b74	-0.055568174
5	0x3d33ae01	0.043867115
6	0x3db84697	0.08997839
7	0xbe888841	-0.26666453
8	0xba8a3893	-0.0010545425
9	0x3d2852dc	0.041094646
10	0xbe8194ff	-0.25308987
11	0x3dbc8bfa	0.09206386
12	0x3dd479dd	0.10374806
13	0x3aeb4ec9	0.0017952557
14	0x3bb733b5	0.0055908808
15	0xbd71fb2a	-0.05907742
16	0x3cdc19b0	0.026867718
17	0xbe65da90	-0.22446656
18	0xbdd33603	-0.10313036
19	0xbd2bc45e	-0.041935317
20	0x3e55f171	0.20892884
21	0xbdfdb1ca	-0.12387426
22	0xbda35a51	-0.07976211
23	0xbde99c40	-0.114067554
24	0xbdfa6df8	-0.12228006
25	0xbd1dfb48	-0.03856972
26	0xbdd589e6	-0.10426693
27	0x3e0d3950	0.13791394
28	0xbd692072	-0.056915708
29	0xbe0c820b	-0.13721482
30	0xbaa7d265	-0.0012803791
31	0x3df02b86	0.117270514
32	0xbb31c06b	-0.0027122747
33	0xbd61c7c0	-0.055122137
34	0x3daadaa6	0.08342485
35	0xbcbf5046	-0.023353707
36	0x3d137462	0.035999663
37	0x3de80735	0.113295
38	0xbe40c679	-0.18825711
39	0x3cb628b4	0.022236206
40	0x3d00bd4e	0.031430535
41	0x3d965ce2	0.07341935
42	0xbd32263a	-0.043493487
43	0x3e447d80	0.191885
44	0x3d261310	0.040545523
45	0xbe1e209e	-0.1544213
46	0xbb864049	-0.004097019
47	0xbd31c5c2	-0.043401487
48	0x3e31f220	0.1737752
49	0x3e5eceb2	0.21758536
50	0xbdde580f	-0.108566396
51	0x3c9128c7	0.01771964
52	0xbc8be359	-0.017076181
53	0xbe53e7d1	-0.206939
54	0xbd8681bc	-0.065677136
55	0x3da18770	0.07887161
56	0xbc4a0011	-0.012329117
57	0xbe162310	-0.14661813
58	0x3ccd565a	0.02506559
59	0xbcc85f00	-0.024459362
60	0xbe939079	-0.2882116
61	0xbd847360	-0.064673185
62	0xbd04a0b5	-0.032379825
63	0xbe766ab8	-0.24064147
64	0xbd7e60ca	-0.062104024
65	0x3db15981	0.0865965
66	0x3df7f6f7	0.12107652
67	0x3dc45c2c	0.09587893
68	0xbd8a2b55	-0.06746546
69	0x3d9222bf	0.071355335
70	0x3e0aef5c	0.13567871
71	0x3d03228b	0.032015365
72	0xbb61a6d5	-0.0034431715
73	0x3d7663f2	0.06015391
74	0xbd6c07f0	-0.057624757
75	0x3d6ae0a2	0.057343133
76	0xbd3b9e27	-0.045805123
77	0x3d7269b4	0.059182838
78	0xbd276f92	-0.040877886
79	0xbe4e98b1	-0.20175435
80	0xbe21e1d8	-0.15808809
81	0x3d68cf83	0.056838524
82	0x3db2a995	0.087237515
83	0x3dcc5f2a	0.099790886
84	0x3d62ea4d	0.055399228
85	0xbc03e551	-0.008050279
86	0xbc6e8cc6	-0.01455993
87	0xbcf7a85d	-0.030231649
88	0xbdc2a2e3	-0.095037244
89	0xbcac4235	-0.021027664
90	0x3dd427cf	0.103591554
91	0xbd167542	-0.03673292
92	0xbe33f7d4	-0.17575008
93	0xbe64ff66	-0.22363052
94	0xbdf413d8	-0.119178474
95	0x3db675d9	0.089091964
96	0xbdd81b4f	-0.10552084
97	0x3d9c7ee3	0.07641389
98	0xbe22c1b1	-0.158942
99	0xbe1d6b6a	-0.15373006
100	0xbdf1e91b	-0.118120395
101	0xbdcd91fc	-0.1003761
102	0xbe545e54	-0.20739108
103	0x3d8f9eb9	0.07012696
104	0x3d5135fe	0.05107688
105	0x3daa23e7	0.08307629
106	0x3da6f728	0.0815261
107	0xbd65bec4	-0.05609013
108	0x3e3a850b	0.18214814
109	0xbe667a23	-0.22507529
110	0xbdec3a39	-0.115345426
111	0xbd9ecea1	-0.07754255
112	0x3d4f8b3e	0.0506699
113	0xbdfac835	-0.12245218
114	0x3d8c4d70	0.068507075
115	0x3e230673	0.15920429
116	0xbc5c5829	-0.013448753
117	0x3dba56cf	0.09098589
118	0x3d97f699	0.07420082
119	0xbe8094f4	-0.25113642
120	0xbe4758ed	-0.19467516
121	0xbcd5abac	-0.026082836
122	0x3cd34bbc	0.025792949
123	0x3d0e66ac	0.034765884
124	0x3cde9c5a	0.027174164
125	0xbcc6d74c	-0.024272583
126	0xbc5b26b0	-0.013375923
127	0x3cdf9f8d	0.02729776
128	0xbe0023b3	-0.12513618
129	0x3cb80e0d	0.022467637
130	0xbce1bed1	-0.027556809
131	0x3da1d7bc	0.07902476
132	0x3d99c43b	0.07508131
133	0xbe3b1bed	-0.18272372
134	0x3da4c2d7	0.08044975
135	0xbd7027d6	-0.05863174
136	0x3e19d767	0.15023576
137	0xbe0834d4	-0.13301402
138	0xbe05f1ac	-0.13080472
139	0x3e2ee611	0.17079951
140	0x3d14a3e8	0.036289126
141	0x3dfccba8	0.12343532
142	0x3e383160	0.17987585
143	0xbd963d02	-0.07335855
144	0x3da792d0	0.08182299
145	0x3daf1a4d	0.08549938
146	0xbca1cc71	-0.019750806
147	0xbda6e333	-0.081488036
148	0xbce7e036	-0.028305154
149	0x3e28d1a9	0.16486229
150	0xbddd01c2	-0.10791351
151	0x3e092f07	0.13396846
152	0xbdaee673	-0.085400485
153	0xbc0184e1	-0.007905216
154	0x3de1d0a9	0.11026127
155	0xbd7c2f0d	-0.06156831
156	0xbb921303	-0.004457833
157	0x3df9e7aa	0.122023895
158	0xbd17fc1b	-0.03710566
159	0x3d5691d8	0.05238518
160	0xbd09762a	-0.033559956
161	0xbdf74473	-0.120736025
162	0x3e0cf524	0.13765389
163	0xbc99f24f	-0.0187923
164	0xbe3153f1	-0.17317177
165	0x3e21aee8	0.15789378
166	0xbe7037d0	-0.23458791
167	0xbd9b340d	-0.07578287
168	0x3db82c61	0.089928396
169	0x3bd1db5d	0.006404324
170	0xbd907c93	-0.07055011
171	0xbe56aca0	-0.20964289
172	0xbdbe4840	-0.09291124
173	0xbe20d405	-0.15705879
174	0xbe34fcc9	-0.17674555
175	0x3c83a32e	0.016069021
176	0xbe046c5a	-0.12931958
177	0xbdd90328	-0.10596305
178	0x3d0038a1	0.031304006
179	0xbe1094c8	-0.14119256
180	0x3e1637f4	0.14669782
181	0xbe05eaa0	-0.13077784
182	0xbdb2d8bc	-0.08732745
183	0xbdba6cbe	-0.09102772
184	0x3e280e74	0.16411763
185	0xbd1c516b	-0.038163584
186	0xbd18ee10	-0.03733641
187	0xbe1263b0	-0.1429584
188	0xbd866bcc	-0.06563529
189	0x3c973a92	0.018460546
190	0xbd89b5d5	-0.06724135
191	0xbcd6a237	-0.026200397
192	0x3d80208c	0.06256208
193	0xbd441985	-0.0478759
194	0xbd9199a5	-0.071093835
195	0x3dad4722	0.08460833
196	0xb7a67a68	-1.9845742e-05
197	0x3c87b5a0	0.016566098
198	0x3dfd25da	0.12360735
199	0x3c44ac2c	0.01200394
200	0x3ce7a137	0.028275115
201	0xbcf1747e	-0.029474493
202	0x3d30adb4	0.043134406
203	0xbd68359a	-0.056691743
204	0x3e038b32	0.12846068
205	0xbe4817f0	-0.19540381
206	0xbe41c542	-0.18922904
207	0xbd02c09a	-0.03192196
208	0x3d5a1356	0.053241096
209	0xbe10511c	-0.14093441
210	0xbd429d0e	-0.04751306
211	0xbe8af579	-0.27140406
212	0x3dae28b1	0.08503855
213	0xbe01a7e1	-0.12661697
214	0xbda0ebcd	-0.078574754
215	0x3d2861aa	0.041108765
216	0xbd57db32	-0.052699275
217	0xbbd794c7	-0.006579015
218	0xbddb8576	-0.10718815
219	0xbcd8b909	-0.02645542
220	0xbdcec2d0	-0.10095751
221	0x3c6b57a8	0.014364161
222	0x3d3b02cf	0.045656975
223	0x3d0f898e	0.03504329
224	0xbbf329d2	-0.007420757
225	0x3da395fb	0.07987591
226	0xbd9b2d28	-0.07576972
227	0xbdb9d444	-0.090736896
228	0xbdc52199	-0.09625549
229	0xbd5f30e3	-0.05448998
230	0x3e49355e	0.19649264
231	0xbe8c3356	-0.27382916
232	0x3e773a90	0.24143434
233	0x3dd17d25	0.102289476
234	0x3d92f865	0.07176284
235	0x3d82c676	0.0638551
236	0x3ddc5cac	0.10759863
237	0x3e2f5af7	0.17124544
238	0xbe97de0a	-0.2966159
239	0x3d5d3a2f	0.054010566
240	0xbe0fd8ed	-0.14047594
241	0xbd8f1f29	-0.06988365
242	0xbe33fd8d	-0.1757719
243	0x3d1133e9	0.035449896
244	0x3d8545f8	0.06507486
245	0x3d4ce28d	0.050020743
246	0xb9dcc771	-0.00042110265
247	0xbcb7a58a	-0.022417802
248	0xbd973e38	-0.07384914
249	0xbe2ec552	-0.17067459
250	0x3ca8279f	0.020526705
251	0xbdf12462	-0.117745176
252	0xbd6e6f21	-0.05821145
253	0xbe2724bb	-0.16322605
254	0x3d5821af	0.0527665
255	0xbe5dd59b	-0.21663515

fc2.bias f4 [300]
0	0xbdab36c2	-0.083600536
1	0x3ca02c56	0.019552391
2	0x3c84d418	0.016214415
3	0x3d096aa8	0.03354898
4	0xbe3ab1ec	-0.18231934
5	0xbca47123	-0.020073479
6	0xbcacab31	-0.021077724
7	0x3cc023f8	0.023454651
8	0x3d4a38e7	0.049370673
9	0xbdb8ba7a	-0.090199426
10	0xbe5b9352	-0.21442917
11	0x3d1744a7	0.036930706
12	0xbdfd9c22	-0.123832956
13	0xbdc4e5fc	-0.096141785
14	0x3d2d9b9c	0.04238473
15	0xbca560fa	-0.020187844
16	0x3dfaec18	0.122520626
17	0xbd6cfc3a	-0.05785773
18	0x3cb7d294	0.022439279
19	0x3d047f9e	0.032348268
20	0xbe1b9524	-0.15193611
21	0x3daa473e	0.083143696
22	0xbe50dd59	-0.20396937
23	0x3e57c2b1	0.21070363
24	0x3e0d1f20	0.13781404
25	0xbd7de5cb	-0.061986726
26	0x3da1fcc8	0.07909542
27	0xbd467cd2	-0.04845888
28	0x3d1ebab3	0.03875227
29	0x3d023141	0.031785253
30	0xbcd742aa	-0.026276905
31	0xbdeb3b8d	-0.11485968
32	0x3b2da971	0.00264987
33	0xbe183e21	-0.1486745
34	0x3d553d19	0.05206022
35	0xbdb902ed	-0.09033761
36	0xbd7313fd	-0.059345234
37	0x3cdd7494	0.027033128
38	0x3bddd1c3	0.0067693903
39	0x3d8802fc	0.06641194
40	0x3ceab7a7	0.028652025
41	0x3d64b555	0.055836994
42	0x3d246fde	0.040145747
43	0x3e330eb7	0.17486082
44	0x3e0a34f9	0.1349677
45	0xbc816bd2	-0.015798483
46	0x3d3d74a2	0.046253808
47	0x3d161981	0.036645416
48	0xbe42d468	-0.19026339
49	0xbd1294b6	-0.035786353
50	0xbdf7dfe5	-0.12103251
51	0xbd6c90a5	-0.05775513
52	0x3c5367c9	0.012903162
53	0x3c36d396	0.011158844
54	0xbced3b20	-0.028958857
55	0x3e517352	0.20454147
56	0x3db1ce23	0.086818956
57	0x3c480bd3	0.01220985
58	0x3d88d28b	0.06680783
59	0x3cf44342	0.029817227
60	0xbd6d2ba6	-0.057902955
61	0x3e0556f3	0.1302145
62	0xbdbd48fe	-0.09242438
63	0xbbe5dd87	-0.0070149335
64	0x3d34792d	0.044060875
65	0x3e0937eb	0.13400237
66	0x3deae709	0.11469848
67	0x3d86e9ca	0.065875605
68	0x3dad9281	0.08475209
69	0x3cce51d5	0.025185505
70	0xb9f4db57	-0.00046702728
71	0x3d81ce5f	0.0633819
72	0xbd4dd2ec	-0.05024998
73	0xbce9de69	-0.028548436
74	0x3c4a3a2c	0.012342971
75	0xbdbbd7a4	-0.091719896
76	0x3aaf9e07	0.0013398536
77	0xbd8ef7e5	-0.06980876
78	0x3d41214c	0.047150895
79	0xbd0a6500	-0.033787727
80	0x3c87b254	0.016564526
81	0xbdbe9095	-0.093049206
82	0x3d3ac66c	0.045599386
83	0xbd8842ca	-0.06653364
84	0xbdfad7fc	-0.12248227
85	0xbcaa60f8	-0.020798191
86	0x3d031f79	0.032012437
87	0x3c716078	0.014732473
88	0xbdf65ac0	-0.12029028
89	0x3d45e6c3	0.048315775
90	0x3c8ed167	0.017433835
91	0x3d91c5e5	0.071178235
92	0xbb536706	-0.0032257452
93	0x3c40733f	0.011746227
94	0xbd32a3c0	-0.043613195
95	0x3aa65678	0.0012690565
96	0x3cf7d8c3	0.030254727
97	0xbd6dc688	-0.058050662
98	0xbe216291	-0.15760256
99	0x3cdda9db	0.027058532
100	0xbe1ec4e9	-0.15504803
101	0xbda3c95d	-0.079973914
102	0x3e5facb1	0.2184322
103	0xbc72f221	-0.014828236
104	0x3e313eda	0.17309132
105	0x3dd2b22b	0.10287889
106	0x3d1497a2	0.03627742
107	0x3d9ce586	0.076609656
108	0xbe1a778e	-0.15084669
109	0xbc843dbf	-0.016142724
110	0x3d810ed8	0.06301659
111	0xbdb51368	-0.08841592
112	0x3d23be42	0.039976366
113	0x3dc9c16c	0.098513454
114	0xbe2f9787	-0.17147647
115	0x3db38383	0.08765318
116	0x3d6fe91b	0.058571916
117	0xbd0d9053	-0.034561466
118	0xbd9e9bd5	-0.07744566
119	0xbbb18b72	-0.0054182345
120	0x3ce197fe	0.027538296
121	0x3dbe72d0	0.092992425
122	0xbda53ab5	-0.08067838
123	0x3c81a12f	0.015823929
124	0xbcad87ce	-0.02118292
125	0x3c17962d	0.009252113
126	0x3d9b6a54	0.0758864
127	0xbb60210d	-0.0034199387
128	0xbd252e11	-0.040327135
129	0x3c2c1d8c	0.010505091
130	0x3d2bddd8	0.041959614
131	0x3d7b145e	0.06129872
132	0xbd480ff2	-0.04884333
133	0x3d8d9030	0.06912267
134	0xbdb5a030	-0.08868444
135	0x3e187ab9	0.14890565
136	0x3bf08c77	0.0073409635
137	0xbdeeb6b8	-0.116559446
138	0xbb2d15a3	-0.0026410602
139	0xbdb69d9f	-0.089167826
140	0x3d339f93	0.043853354
141	0x3df8ef11	0.12154973
142	0x3d479e9a	0.04873524
143	0xbdad8b39	-0.0847382
144	0xba6de845	-0.00090754434
145	0x3c0c6934	0.008570004
146	0xbc53588b	-0.012899528
147	0x3dc44d2d	0.095850326
148	0x3c1142a4	0.008865986
149	0x3a479768	0.0007613809
150	0xbe02f959	-0.12790431
151	0x3d8821bc	0.06647059
152	0xbd078b73	-0.033091974
153	0x3e18275c	0.14858764
154	0xbe474afb	-0.19462197
155	0x3cf37e49	0.029723303
156	0x3e05b3ca	0.13056865
157	0xbd8c9124	-0.06863621
158	0xbddab92c	-0.1067985
159	0x3e3114d8	0.17293108
160	0xbe3fb558	-0.18721521
161	0x3c0cd5e9	0.008595922
162	0xbc01d711	-0.007924811
163	0x3a489333	0.0007651329
164	0x3db7c4ea	0.08973105
165	0x3dd2c155	0.102907814
166	0xbdc1e684	-0.094677955
167	0x3dfae148	0.1225
168	0xbdb411ab	-0.087924324
169	0xbdb02810	-0.08601391
170	0x3ca18b5f	0.019719778
171	0x3c6c8831	0.014436767
172	0x3d84df55	0.0648791
173	0xbd21805d	-0.039429057
174	0xbd7b6c4b	-0.061382573
175	0xbdd3984a	-0.10331781
176	0xbd7bb3ed	-0.061450887
177	0xbd800474	-0.06250849
178	0xbe085e79	-0.13317288
179	0x3d171718	0.03688726
180	0xbcab6931	-0.020924183
181	0x3ca7e889	0.020496624
182	0xbd05237d	-0.032504547
183	0xbe1a0f90	-0.15044999
184	0x3bf926d3	0.007603505
185	0xbd5bd429	-0.05366913
186	0xbcfe0d33	-0.031012153
187	0xbc28c8d5	-0.010301788
188	0x3d67d289	0.056597266
189	0xbe0632b0	-0.13105273
190	0xbdcb50ab	-0.099274956
191	0x3e04b8ab	0.1296107
192	0x3d112406	0.035434745
193	0xbcb2dd6c	-0.021834098
194	0x3dd1840f	0.10230266
195	0xbdfc165e	-0.12308954
196	0xbb0296cb	-0.0019926305
197	0x3bff3ffc	0.00778961
198	0xbd8178a8	-0.063218415
199	0x3cf14e6c	0.02945634
200	0xbc98a9f7	-0.018635733
201	0xbdbb8471	-0.091561206
202	0x3dd92524	0.10602787
203	0xbccb76dd	-0.024836952
204	0xbda298e2	-0.07939316
205	0x3e09fd1c	0.1347546
206	0x3bf9f4b7	0.0076280492
207	0x3ccfd5d9	0.025370525
208	0x3c51a1ab	0.012794892
209	0x3d73aa2a	0.059488453
210	0x3c62a28c	0.0138326995
211	0xbdfe66fc	-0.124219865
212	0xbc7c9ed6	-0.015418729
213	0x3d84debf	0.06487798
214	0xbd7b7fb1	-0.061401073
215	0xbd8f7d42	-0.07006313
216	0xbd487dc2	-0.048948057
217	0x3c0ecf5a	0.008716429
218	0x3d85e152	0.06537117
219	0xbdc57bc9	-0.09642751
220	0x3d29065a	0.041265823
221	0x3d9ee83c	0.07759139
222	0xbe052b4b	-0.13004796
223	0xbe06e3e9	-0.13172878
224	0x3d8e7b2c	0.06957087
225	0x3e4d7503	0.20064168
226	0xbd0dc77a	-0.034614064
227	0x3c1d6204	0.009605888
228	0x3e3358e3	0.17514376
229	0x3cc6738d	0.02422502
230	0xbdb94d40	-0.090479374
231	0x3db5f31d	0.08884261
232	0x3d272a68	0.040811926
233	0x3b8c61ed	0.0042841346
234	0xbe34cead	-0.17656966
235	0xbbb959d8	-0.005656462
236	0xbdd02cad	-0.10164771
237	0x3dd72f9f	0.1050713
238	0xbcfc25b4	-0.030779697
239	0x3cffab83	0.031209713
240	0xbd4e26f1	-0.050330106
241	0xbddc1e10	-0.107479215
242	0x3d734ed5	0.059401352
243	0x3cabfbe9	0.020994144
244	0x3cea251f	0.028582154
245	0x3c66f609	0.014096745
246	0xbd93a541	-0.07209254
247	0x3d0f4d41	0.034985784
248	0xbdc96195	-0.098330654
249	0x3d91b25e	0.07114099
250	0xbd17892c	-0.03699605
251	0xbd956943	-0.07295468
252	0xbd5a2b78	-0.05326411
253	0x3cb56cfe	0.022146698
254	0x3dad6181	0.08465863
255	0x3d233178	0.0398421

fc3.weight f4 [4, 300]
0	0xbeb81fd6	-0.3596179
1	0x3d44966b	0.047995012
2	0xbec998b5	-0.3937432
3	0xbeb37fed	-0.35058537
4	0xbf156ff6	-0.58373964
5	0x3d18c912	0.03730113
6	0xbbc36213	-0.005962619
7	0x3dae4f1a	0.08511181
8	0xbd5b902a	-0.053604282
9	0xbe9bbe10	-0.30418444
10	0xbf1f6969	-0.6227022
11	0x3d8b0e2f	0.06789815
12	0xbef0080e	-0.46881145
13	0xbbb839a4	-0.0056221057
14	0xb8e0f5e9	-0.00010726957
15	0xbea7182c	-0.3263563
16	0x3d259066	0.040420912
17	0xbe40d02b	-0.1882941
18	0x3e1cdae2	0.15317872
19	0x3db47af3	0.08812513
20	0xbed63efb	-0.41844925
21	0x3e495d90	0.19664598
22	0xbe37749c	-0.17915577
23	0x3f0e0dc0	0.5548973
24	0x3ebdbb49	0.3705695
25	0xbe4ad4fb	-0.19807808
26	0x3e974ddd	0.29551592
27	0x3f154f40	0.5832405
28	0x3d428fd9	0.047500465
29	0x3e0487af	0.12942384
30	0x3e1f40f6	0.15552124
31	0xbeb25e74	-0.34837687
32	0x3e95c876	0.29254502
33	0x3f625c3e	0.88422
34	0x3e0bceb5	0.13653071
35	0xbda59b58	-0.0808627
36	0x3f034233	0.51272887
37	0xbe87151d	-0.26383296
38	0x3c1c00f2	0.00952171
39	0x3ebf0971	0.3731189
40	0x3e997efd	0.29979697
41	0x3df8b461	0.121437795
42	0xbe2fb280	-0.17157936
43	0x3f351ca9	0.70746857
44	0x3ec6d4c1	0.38834193
45	0xbd8e20ff	-0.06939887
46	0xbdb3e483	-0.087838195
47	0xba8737a5	-0.0010316266
48	0x3f488249	0.783238
49	0xbe5b354d	-0.21407051
50	0x3e88bfb3	0.26708755
51	0xbe7757d7	-0.24154602
52	0x3c972daf	0.0184544
53	0xbda644fd	-0.08118627
54	0xbee9ef77	-0.4569051
55	0x3ef0164e	0.46892017
56	0x3e3f8ca0	0.18705988
57	0x3e5fde37	0.21862112
58	0x3e4ebe53	0.2018979
59	0x3eb8ca33	0.36091766
60	0x3eccca3e	0.3999805
61	0xbe5ba6ef	-0.21450399
62	0xbe865c48	-0.2624228
63	0x3d8634dc	0.06553051
64	0x3e7d7c61	0.24754478
65	0x3eb4ce30	0.3531356
66	0x3e9bd31f	0.3043451
67	0x3d5493b4	0.051898673
68	0x3f2739bc	0.6532247
69	0x3f0954eb	0.536452
70	0xbe0b5153	-0.13605241
71	0xbc81044b	-0.015749117
72	0x3ba2cc5e	0.00496821
73	0xbed02399	-0.4065216
74	0x3dd3f01c	0.103485316
75	0x3dd46d3f	0.103723995
76	0xbdea0c68	-0.114281476
77	0xbe279b77	-0.16367899
78	0x3f0e8845	0.5567668
79	0x3dfbcfae	0.12295471
80	0x3daf302c	0.0855411
81	0xbe42d5a1	-0.19026805
82	0xbd81336d	-0.06308637
83	0x3eab972a	0.33513767
84	0x3beff2fd	0.0073226676
85	0xbedc180b	-0.42987093
86	0x3e283d41	0.16429617
87	0xbc751c8d	-0.01496042
88	0xbe8e4360	-0.27785778
89	0xbce04900	-0.02737856
90	0x3d306e17	0.04307374
91	0x3ec7442f	0.38919207
92	0xbec72fbe	-0.38903612
93	0x3e88ec7e	0.2674293
94	0xbe685080	-0.22686958
95	0xbe4c1bc9	-0.19932474
96	0x3e7df816	0.24801669
97	0x3f36007d	0.71094495
98	0xbe26d519	-0.16292228
99	0x3ef94336	0.4868409
100	0xbf63a72a	-0.8892695
101	0xbdfd9fa7	-0.12383967
102	0x3f5a112b	0.85182446
103	0xbde36364	-0.11102942
104	0x3f3a0a15	0.72671634
105	0x3db6c27e	0.08923815
106	0x392c6694	0.00016441412
107	0xbe0eafc7	-0.13934241
108	0xbf0108f6	-0.504043
109	0xbe88c8c5	-0.26715675
110	0x3e06c6d6	0.13161787
111	0x3e87ed25	0.26548114
112	0xbe4b4dc0	-0.19853878
113	0x3e9713be	0.2950725
114	0x3f506377	0.8140177
115	0x3e5eea0e	0.21768972
116	0x3ed5d211	0.4176183
117	0xbe55ce67	-0.20879517
118	0xbea63078	-0.32458854
119	0xbe3cc11d	-0.18433042
120	0x3f5f0bb5	0.8712724
121	0x3d2d85d1	0.042363945
122	0x3de1ab18	0.11018962
123	0x3ea86d76	0.32896012
124	0xbeadfa97	-0.33980247
125	0x3d9ba885	0.07600502
126	0x3edf0eae	0.43565887
127	0x3e9a865a	0.30180627
128	0xbdc1402b	-0.09436067
129	0x3e0452c3	0.12922196
130	0x3e37286a	0.1788651
131	0xbe8383da	-0.25686532
132	0x3d50a5ec	0.050939485
133	0x3c7231df	0.014782398
134	0xbf186de5	-0.59542686
135	0x3f6f8e83	0.9357683
136	0x3ddc60b4	0.10760632
137	0xbd96663b	-0.07343718
138	0xbda0989c	-0.07841608
139	0xbe04ed5e	-0.12981173
140	0xbd8de62a	-0.06928666
141	0x3e9c8938	0.3057344
142	0x3e962267	0.29323122
143	0xbf22992b	-0.63514966
144	0xbebe001d	-0.3710946
145	0x3dd19f53	0.10235467
146	0xbe903dff	-0.281723
147	0x3e988d66	0.29795378
148	0x3c0abe8c	0.0084682815
149	0x3e7a3795	0.24435265
150	0xbdea1eb9	-0.11431641
151	0xbd617f74	-0.05505319
152	0x3d712b5e	0.05887925
153	0x3c8d6512	0.017260108
154	0xbe0f047b	-0.13966553
155	0x3e670b2a	0.22562853
156	0x3ee90c3e	0.45517153
157	0xbeed7e7a	-0.46385556
158	0x3e0ba199	0.13635863
159	0x3f208161	0.62697417
160	0xbf09b62b	-0.5379359
161	0xbe93e9c0	-0.28889275
162	0xbe48b953	-0.19601946
163	0xbe5c4e3a	-0.21514216
164	0x3e3ea012	0.1861575
165	0x3e6f6d10	0.23381448
166	0xbe8c857d	-0.27445593
167	0x3f152496	0.5825895
168	0xbeccb4eb	-0.3998178
169	0xbe198a7f	-0.14994238
170	0x3e33f056	0.1757215
171	0xbe92f3b3	-0.28701553
172	0x3e7ff60c	0.24996203
173	0xbe9ba72f	-0.30400988
174	0xbb4b9bee	-0.0031068283
175	0xbd54b17c	-0.051927075
176	0xbe9c7c1f	-0.30563447
177	0xbe700ee6	-0.23443183
178	0xbf1d6dfe	-0.6149596
179	0xbe3d5fcc	-0.18493575
180	0xbe4d5993	-0.20053701
181	0x3d2c3428	0.042041928
182	0x3d8633fe	0.065528855
183	0x3e9e5d32	0.30930477
184	0xbe96b34b	-0.29433665
185	0xbec26c0c	-0.37973058
186	0x3d719fff	0.058990475
187	0x3ec68f07	0.38780996
188	0x3df441b7	0.119265966
189	0xbeca5899	-0.3952072
190	0xbeb6307c	-0.35583866
191	0x3bb83b86	0.00562233
192	0x3e26eca9	0.16301216
193	0xbe08fc07	-0.13377391
194	0x3f6062af	0.8765058
195	0xbdb32b0d	-0.08748446
196	0x3e832174	0.2561146
197	0x3ddce6c8	0.107862055
198	0x3e80f4db	0.2518681
199	0xbeb87ae8	-0.3603127
200	0x3e57af2c	0.21062917
201	0x3ebee7b1	0.37286142
202	0x3ee3d6b1	0.44499734
203	0xbd93140e	-0.071815595
204	0xbebc41a9	-0.36768845
205	0x3d38e661	0.04514158
206	0x3c3c250e	0.011483444
207	0x3eb5ff54	0.35546362
208	0xbd61a78a	-0.05509142
209	0xbcb13ab6	-0.02163444
210	0xbe78d6a9	-0.24300636
211	0xbe853d25	-0.26023212
212	0x3d0c172f	0.034201797
213	0xbe238410	-0.15968347
214	0xbca5bc92	-0.020231519
215	0xbd127b4a	-0.03576211
216	0xbec6f698	-0.3886001
217	0xbeb4912b	-0.35267004
218	0x3edd0de2	0.43174654
219	0xbe0285c3	-0.12746339
220	0x3d58df6b	0.052947443
221	0x3ee8ab67	0.4544327
222	0xbc5e3582	-0.013562562
223	0xbceafada	-0.028684068
224	0x3d8b2087	0.067933135
225	0x3f0ccb5b	0.54997796
226	0xbed3a70e	-0.4133839
227	0x3da76a5f	0.081745856
228	0x3ec629de	0.38703817
229	0x3cdfbc33	0.02731142
230	0xbdb9e177	-0.09076207
231	0x3eabd5b2	0.33561474
232	0x3e742269	0.23841251
233	0x3e82b3e4	0.2552787
234	0x3ebd64ac	0.3699087
235	0x3e3d2df7	0.18474565
236	0x3b88397d	0.0041572438
237	0xbd5bbd94	-0.053647593
238	0x3e047e61	0.12938835
239	0x3d764b72	0.060130544
240	0x3cff5c60	0.031171978
241	0xbf1e2834	-0.61780095
242	0x3e555441	0.20832922
243	0xbdb31c0e	-0.087455854
244	0xbe143f4f	-0.14477275
245	0x3d3f4b69	0.046702776
246	0xbe3a3829	-0.18185486
247	0xbd4a82b8	-0.04944107
248	0xbf064156	-0.52443445
249	0x3ead63c8	0.3386519
250	0xbebba612	-0.3665014
251	0x3f09e96c	0.538718
252	0x3d3eb310	0.046557486
253	0x3f4db819	0.80359036
254	0xbe596e87	-0.21233569
255	0xbedb7a02	-0.42866522

fc3.bias f4 [4]
0	0xbcb16894	-0.021656312
1	0x3d41905f	0.047256824
2	0xbd7b4625	-0.061346192
3	0xbc420992	-0.011843102
