checkpoint_critic_1.pth (torch_old, 542604 bytes, 5 tensors)

fcs1.weight f4 [400, 33]
000000 05 5a d1 3d b5 c2 66 3d eb 12 38 3f ce 24 75 bf
       0.10222248 0.05633803 0.71903867 -0.95759284
000010 71 b3 95 be f4 2b da 3e 40 db 74 3e 7c 72 ad bd
       -0.29238465 0.4261166 0.23911762 -0.08469102
000020 33 b0 4a be 8c 1a 27 be cd 48 d0 3d d6 06 7e 3d
       -0.19793777 -0.1631872 0.10170136 0.062018238
000030 d1 5d 8f 3d ce 5d 4a be c1 15 3a 3e 70 67 c5 be
       0.07000316 -0.19762346 0.18172361 -0.3855548
000040 4f c6 14 3f c3 a5 e5 bc f7 92 39 bd ae df d0 be
       0.58115095 -0.028033143 -0.045306172 -0.40795654
000050 32 5b 82 bc 27 53 04 3e 96 4a 7a 3e c1 d2 68 3c
       -0.015912626 0.12922345 0.24442515 0.014210404
000060 56 fe 84 3d 61 86 9c 3c ca 98 09 3e 28 bd e1 3f
       0.06493823 0.019107046 0.1343719 1.7635851
000070 12 bf 10 3d 58 5e 03 bd d0 93 e5 bf c2 e0 a3 3c
       0.03533847 -0.032072395 -1.7935734 0.020004634
000080 8e d0 cc 3e 46 3d 8f bd ea 04 09 3f aa 7e 65 be
       0.40002865 -0.06994109 0.53523123 -0.224116
000090 86 be 7c bf 5a e8 8e 3e 19 f6 98 3f 21 b3 e4 3d
       -0.98728216 0.27911645 1.1950103 0.111669786
0000a0 a6 2c ed 3d 6c a1 12 bf de 3e e8 3c a3 0e c7 3e
       0.11580782 -0.5727756 0.02835029 0.38878354
0000b0 ee 5c e6 3c 02 26 a6 3e 78 d8 b0 3e c5 d6 d1 3e
       0.028120484 0.32450873 0.34540153 0.4098417
0000c0 a2 ce fc 3d 09 cf c2 bf e8 57 c3 be 51 94 82 be
       0.123440996 -1.5219432 -0.38153005 -0.2550378
0000d0 fb 3c 8d be ec d4 50 3e a3 98 b3 bd ec fc 93 be
       -0.27585587 0.20393723 -0.087693475 -0.28903902
0000e0 38 aa 0c be 1f 78 aa 3d 97 82 83 3d ef ca 6c be
       -0.13736808 0.083236925 0.064213924 -0.23124288
0000f0 08 46 26 40 b3 30 b8 3d 31 04 01 3d fc b1 20 c0
       2.5980244 0.08993664 0.031498138 -2.5108633
000100 82 43 11 bd 1b fa d3 3f b2 a5 30 3f f4 11 4f 3f
       -0.03546477 1.6560701 0.6900283 0.8088677
000110 4c 81 a4 3f 80 83 af be e6 3a 1b 3f 0b d0 e2 be
       1.2851958 -0.34280014 0.60636747 -0.4429935
000120 ab 70 b5 3e f2 87 1e 3e b4 01 6b 3f d1 a1 f9 be
       0.3543752 0.15481547 0.91799474 -0.4875627
000130 28 43 bf 3e 96 35 20 3f d7 3a 7e 3f b9 c6 24 bf
       0.37355924 0.62581766 0.9930853 -0.64365727
000140 e8 c9 0e 3f ed 3f 28 3e 0c c9 a7 bf 20 10 3e be
       0.55776834 0.16430636 -1.310823 -0.18560839
000150 7c 6c ba bf 8c f5 13 bf 0d 8b 43 3e f5 4d b2 be
       -1.4564357 -0.5779655 0.19096012 -0.34825101
000160 3a 42 12 bf 06 b7 1f bf cf 0f 79 3e 5f 05 3a be
       -0.57132304 -0.62388647 0.24322437 -0.18166111
000170 89 7a 74 3f 5e c3 23 40 10 ad 2e bf 14 0b 42 bc
       0.95499474 2.5587993 -0.6823282 -0.011843462
000180 c0 62 25 c0 ba 54 b4 bc a1 38 a9 be 27 46 85 bd
       -2.5841522 -0.022013057 -0.33051017 -0.06507521
000190 7c f4 cf 3f ab 45 65 3e d9 7c 70 bf 59 21 98 bf
       1.6246486 0.22389857 -0.939405 -1.1885177
0001a0 e1 e3 5c 3e b3 39 9d 3e 67 46 f1 3e a4 b7 2c 3f
       0.21571304 0.30708084 0.47124025 0.67467713
0001b0 96 d4 90 bf 78 45 ee be fa 62 2c 3e 88 7d 37 3e
       -1.1314876 -0.46537375 0.16834632 0.1791898
0001c0 b0 3e 6c be 62 6f ce 3d a2 ef 5b 3e 3b a6 3d 3e
       -0.23070788 0.10079838 0.21478131 0.18520443
0001d0 f3 99 be 3d 9a 73 75 3e 76 79 57 3f 76 e0 bf 3e
       0.09306707 0.2396988 0.8416971 0.37475938
0001e0 5f fc 24 3f fd 89 9c 3e f9 44 b6 3e 22 95 35 3e
       0.6444759 0.30574027 0.35599497 0.17732671
0001f0 03 c4 a5 be 60 4c 11 3c 0d be 36 40 59 9a 8c 3d
       -0.32376108 0.008868307 2.8553498 0.06865377
000200 fa 24 00 bd bd fc 39 c0 a0 4b 88 3a ed 70 10 bf
       -0.031285264 -2.906051 0.0010398515 -0.5642231
000210 d2 e0 49 3d 92 6b 39 3e 97 0f 01 3e 19 51 20 bf
       0.04928667 0.18107441 0.12603603 -0.62623745
000220 8d bb 18 3f d5 01 d7 3e f0 dc 7d 3c d3 a5 22 bd
       0.5966118 0.41993585 0.01549457 -0.039708924
000230 00 67 71 3f be b9 d1 be 5d b9 c1 bd 31 5c 37 3e
       0.9429779 -0.40962023 -0.09459183 0.17906262
000240 46 f5 52 3d 25 fd a7 bd 26 f3 18 3e ec 81 44 3d
       0.051503442 -0.0820258 0.14936504 0.047975466
000250 ce 8e 11 3e 65 6f 8e 3e da 25 20 3e ff 8b 1d 3e
       0.14214632 0.27819362 0.15639439 0.15385436
000260 71 aa 06 3e a7 88 14 be eb 9c b2 3e 15 89 d3 3b
       0.13150956 -0.14505254 0.34885344 0.0064555504
000270 97 c8 8d bd d5 61 dc bd a9 33 da 3d ff 92 e5 3f
       -0.06923025 -0.107608475 0.10654385 1.7935485
000280 67 13 14 bd f4 24 89 bc 6b 5e e5 bf 9f 2b 2a 3d
       -0.036151316 -0.016741253 -1.7919439 0.041545507
000290 fc 3a bf 3d 95 41 53 be c4 1f 06 3f 99 db 0f be
       0.09337422 -0.20630486 0.5239222 -0.14048614
0002a0 4c 53 67 bf 6f e2 e4 3d d9 e7 77 3e 4e 69 51 3d
       -0.90361476 0.11176001 0.24209537 0.051125817
0002b0 ee e5 6f bd 03 a8 19 3f 7d fc 58 3e 0f 4d 02 3e
       -0.058568887 0.6002199 0.21190067 0.12724708
0002c0 f6 95 64 3e d4 00 1b be 76 cf 26 3d 7b e8 a1 bd
       0.2232283 -0.15137035 0.040725194 -0.0790567
0002d0 d6 37 5a 3e c7 cf 24 bf c7 36 75 3e 77 84 6b 3e
       0.21310362 -0.64379543 0.23946677 0.2299975
0002e0 a7 33 88 bf fb e9 40 bb 97 2b 4d 3e e1 a8 10 3d
       -1.0640763 -0.0029436338 0.2003616 0.035317305
0002f0 c7 87 0c be 90 34 72 bd ae 81 43 bd cd b5 1d bd
       -0.1372367 -0.05913216 -0.047731094 -0.038503457
000300 80 6e 11 40 00 c7 34 bd 9d 7a 0a bd 87 6c 0f c0
       2.2723694 -0.044135094 -0.03380834 -2.240999
000310 fa af e4 3c 4a af 18 bf e9 95 9e bc 20 c3 c6 3e
       0.027915943 -0.5964247 -0.019358592 0.38820744
000320 cf 1f 27 3e 11 19 6a bf 21 4b 96 bd 3f bf 7a 3f
       0.16320728 -0.914445 -0.073385485 0.9794807
000330 ca b7 8a bd 03 d8 88 3d eb fb 87 bc 9b 9d ba be
       -0.06773336 0.06681826 -0.016599616 -0.36448368
000340 cd a3 47 3e 35 c9 08 bd 24 3d de 3d 53 70 18 be
       0.19496079 -0.03339501 0.108515054 -0.14886598
000350 b8 96 0a be 2c 88 50 ba 0e 32 a5 be 27 5a f4 3d
       -0.13534057 -0.00079548615 -0.3226475 0.11931258
000360 c3 dc 6d be 2a 04 0e 3e a6 19 d1 3d 33 0c b2 bd
       -0.23228745 0.13868776 0.1020997 -0.08693733
000370 84 a4 e8 3c 96 a1 ab bd 23 1b 2f 3d f9 cd 88 3c
       0.02839876 -0.083804294 0.04275049 0.016699778
000380 a2 63 a8 3d e8 6a b9 3f 31 c9 9c 3c 9a 5c b6 bc
       0.082221285 1.448575 0.019138904 -0.022260953
000390 88 cf bb bf 94 73 8b bc 90 24 de 3e 8f 35 74 be
       -1.4672709 -0.017022885 0.4338727 -0.23848556
0003a0 64 70 49 3f 7e a4 9a bd 6e d2 c3 bf 20 04 2c bf
       0.7868712 -0.07550906 -1.5298593 -0.67193794
0003b0 1a 5c 1b 3e f6 c1 8f bf 59 e6 6e be 44 56 97 3e
       0.15171853 -1.1231067 -0.23330058 0.29558003
0003c0 5f 7a 4e 3e 46 f1 6f be 4d 72 ba 3e 5d 20 60 3e
       0.20163868 -0.23431882 0.3641533 0.21887346
0003d0 c0 7a 76 3e 49 60 fb 3e 03 26 15 3e 69 8f 0a 3e
       0.24070263 0.49096897 0.14565282 0.13531269
0003e0 1d 6e 84 3d fd 2c 3c 3f e3 6e cd bd 62 08 22 3e
       0.06466315 0.73506147 -0.100309156 0.1582351
0003f0 f9 76 07 bf 72 ef a7 bd fb 41 2e 3e a3 56 34 be
       -0.5291591 -0.081999674 0.17017357 -0.17611174

fcs1.bias f4 [400]
000000 0c 76 d0 bf 8e 4a 1b c0 e8 8f 1c c0 65 9c 32 c0
       -1.6286025 -2.4264255 -2.4462833 -2.7907956
000010 09 02 db bf 2b 9e 05 c0 4e 01 aa bf 55 dc 14 c0
       -1.7109996 -2.0877788 -1.3281648 -2.325948
000020 ad 35 dc bf f6 0d 1c c0 05 72 81 bf 4f 26 f7 bf
       -1.720388 -2.438352 -1.0112921 -1.9308566
000030 38 c0 02 c0 a1 7c 1e c0 01 ea 27 c0 e0 f9 7b bc
       -2.042982 -2.4763567 -2.6236575 -0.015379399
000040 ee 6f 42 c0 24 8f 04 c0 78 c4 a5 bf f4 69 23 c0
       -3.0380816 -2.0712366 -1.2950583 -2.5533419
000050 4a 99 1c c0 18 dd 31 c0 0f 8e b0 bf c9 d0 34 c0
       -2.446856 -2.7791195 -1.3793353 -2.8252432
000060 9d e2 19 c0 51 9c cb bf 72 ba 0b c0 06 30 3e c0
       -2.4044564 -1.5907079 -2.1832547 -2.971681
000070 70 50 e9 bf ce 6d 1c c0 73 1b fc bf 06 54 1a c0
       -1.8227673 -2.444202 -1.9695877 -2.4113784
000080 ca 7d 0f c0 5a 54 31 c0 80 ad 13 c0 cd d4 bb bf
       -2.2420526 -2.7707734 -2.3074646 -1.4674317
000090 6d 96 a0 bf b1 16 2f c0 5a 33 04 40 cd fe 14 c0
       -1.2545906 -2.73576 2.0656343 -2.3280518
0000a0 29 41 1f c0 2b c1 51 c0 83 17 fb bf 67 75 3d c0
       -2.488352 -3.277415 -1.961655 -2.9602907
0000b0 1a 35 fe bf e8 a7 c9 bf bb 11 39 c0 ec d0 1d c0
       -1.9859955 -1.5754366 -2.8917072 -2.4658766
0000c0 f7 c6 d1 bf f1 16 0a c0 c1 e1 20 c0 96 59 48 c0
       -1.6388844 -2.1576502 -2.513779 -3.130468
0000d0 5b 58 d5 bf c9 3f 09 c0 7c a1 1c c0 5f d3 d0 bc
       -1.6667589 -2.1445181 -2.4473562 -0.025491415
0000e0 3b f7 20 c0 50 18 0e c0 b2 3c 27 c0 ca d6 e0 3f
       -2.5150898 -2.220234 -2.6130795 1.7565548
0000f0 07 cc 04 c0 44 14 c7 bf 8f b7 d9 bf 58 a7 02 c0
       -2.0749528 -1.555306 -1.7009143 -2.0414639
000100 a9 5d 39 c0 24 5b 0e c0 8a 45 28 c0 23 7a 3b c0
       -2.8963416 -2.2243128 -2.6292443 -2.9293296
000110 1c b6 13 c0 60 26 b0 bf f1 a1 2d c0 0e 53 16 c0
       -2.30799 -1.3761711 -2.713009 -2.3488193
000120 fd aa ad bf 76 c1 55 c0 8d 8d b5 bf a6 16 29 c0
       -1.3567806 -3.339933 -1.4183823 -2.6420074
000130 f8 cb d1 bf 95 c1 3b c0 e3 69 1b c0 2f ac 4f c0
       -1.6390371 -2.9336903 -2.4283378 -3.2448843
000140 1b 28 1a c0 92 ff 2a c0 d5 c0 2f c0 4b 2c 33 c0
       -2.4086978 -2.6718488 -2.7461445 -2.7995784
000150 65 9b 29 c0 74 5f 5d c0 61 1e fe bf 94 f1 bc bf
       -2.6501095 -3.458951 -1.9853021 -1.4761224
000160 b0 cb 0a c0 16 95 2a c0 d1 03 d2 bf 71 40 0c c0
       -2.168682 -2.6653495 -1.6407415 -2.1914332
000170 57 ff 2b c0 2a 2c d1 bf db 42 27 c0 6b ff 25 c0
       -2.6874597 -1.6341603 -2.6134555 -2.5937145
000180 ef a2 f6 bf 8b e0 27 c0 a6 e3 fc bf 31 1f 08 c0
       -1.9268473 -2.62308 -1.9756973 -2.1269038
000190 a7 da e4 bf da fa f2 3c fc 0b 10 c0 2d 1f 18 c0
       -1.7879227 0.029660631 -2.2507315 -2.3769028
0001a0 72 fd 07 c0 d6 c7 16 c0 2b 90 ef bf a0 bd 11 c0
       -2.124844 -2.355947 -1.8715872 -2.2771988
0001b0 9e 27 20 c0 96 37 0e c0 57 f5 e3 bf 98 83 33 c0
       -2.502418 -2.2221427 -1.7809247 -2.8049068
0001c0 6f 05 00 c0 e9 e3 1c bf b0 86 1f c0 85 cb 20 c0
       -2.0003316 -0.61285263 -2.4925957 -2.5124218
0001d0 6e 15 0e c0 c5 4b 21 c0 36 78 36 c0 cf b8 96 bf
       -2.220058 -2.5202496 -2.851087 -1.1775149
0001e0 47 ca 11 c0 00 1d 2b c0 c6 3d 07 c0 31 dd 17 c0
       -2.277971 -2.673645 -2.1131454 -2.3728755
0001f0 41 6b 0e c0 c6 9a 11 c0 c4 d7 03 c0 38 c0 06 c0
       -2.2252963 -2.2750716 -2.0600443 -2.105482
000200 4d 0a 27 c0 f3 18 14 c0 27 44 0e c0 cb fe f5 bf
       -2.6100037 -2.3140228 -2.2229097 -1.9218382
000210 52 86 12 c0 6e 07 ec bf e7 a7 1b c0 5d 6e b6 bf
       -2.2894483 -1.8439767 -2.432123 -1.425243
000220 ad 1c 1a c0 87 06 36 c0 33 2e 16 c0 bc 43 05 c0
       -2.4080002 -2.8441484 -2.3465698 -2.0822592
000230 3b 12 0c c0 17 d6 14 c0 4e 05 1a c0 51 00 30 c0
       -2.1886127 -2.325567 -2.4065738 -2.7500193
000240 59 1e 06 c0 8e 70 da bf bf 4a 05 c0 ec 03 fe bf
       -2.0956023 -1.7065599 -2.0826871 -1.9844947
000250 36 93 10 c0 52 8f cf bf 96 4d 02 c0 ad a9 e5 bf
       -2.258985 -1.6215613 -2.0359855 -1.7942406
000260 03 98 1c c0 10 3a 36 c0 23 8d 39 c0 7c 65 24 c0
       -2.446778 -2.8472939 -2.8992393 -2.568694
000270 c4 f6 2e c0 df e7 20 c0 de e9 41 c0 66 ac 17 c0
       -2.7338114 -2.5141523 -3.0298991 -2.3698974
000280 b6 d3 08 c0 c2 e9 f3 bf fe b8 1e c0 4b 2c 1e c0
       -2.1379218 -1.9055712 -2.480041 -2.4714534
000290 1c 8d 1c c0 f1 73 1f c0 f4 be 23 c0 ca a8 42 c0
       -2.4461126 -2.4914515 -2.5585299 -3.041552
0002a0 d3 45 f4 bf 10 57 d5 bf dd 71 e3 bf 38 0c 11 c0
       -1.9083809 -1.6667194 -1.7769123 -2.2663708
0002b0 f7 fe 3a c0 2e 82 27 c0 6f 55 b6 bf d3 5c 10 c0
       -2.9218118 -2.6173205 -1.4244822 -2.2556655
0002c0 39 63 21 c0 14 83 20 c0 b5 68 10 c0 5c 64 09 c0
       -2.521681 -2.5080004 -2.2563908 -2.1467505
0002d0 88 48 ee bf 38 00 1b c0 a8 b7 f7 bf a0 37 f1 bf
       -1.8615885 -2.4218884 -1.9352922 -1.88451
0002e0 7c 9f 1a c0 99 76 ec bf c6 bc 30 c0 9b 36 d2 bf
       -2.4159842 -1.8473693 -2.7615218 -1.6422914
0002f0 c2 9a 06 c0 c7 19 16 c0 fc 30 29 c0 a8 76 00 c0
       -2.1031957 -2.3453233 -2.6436148 -2.0072422
000300 ab 02 ff bf 73 c3 0b c0 e3 c9 08 c0 53 ed 36 c0
       -1.9922689 -2.1838043 -2.1373222 -2.8582351
000310 93 06 c7 bf a3 39 39 c0 43 4e 1b c0 78 8b 21 c0
       -1.5548881 -2.8941429 -2.4266517 -2.5241375
000320 ae 13 1c c0 4b 24 1a c0 63 e7 33 c0 bb 39 08 c0
       -2.4387012 -2.4084651 -2.8109977 -2.1285236
000330 25 90 29 c0 83 91 fe bf f3 ab 37 c0 74 76 23 c0
       -2.649423 -1.9888157 -2.86987 -2.5541048
000340 5d c6 1a c0 fd 00 05 c0 6d f3 9b bf 2f d7 e1 bf
       -2.4183571 -2.0781853 -1.2183663 -1.7643794
000350 e6 09 02 c0 1b b0 05 c0 a2 20 e9 bf 3d d0 0f c0
       -2.0318542 -2.0888736 -1.8213084 -2.2470849
000360 95 76 f9 bf 7c f5 2b c0 ad 16 11 c0 fe 91 bf bf
       -1.9489313 -2.6868582 -2.267009 -1.4966428
000370 bf a8 01 c0 c8 e7 13 c0 f1 f7 3a c0 56 99 fd bf
       -2.0259244 -2.3110218 -2.9213831 -1.981242
000380 8c e0 12 c0 d1 b4 22 c0 08 f7 34 c0 78 94 97 bf
       -2.2949553 -2.5422862 -2.8275776 -1.1842184
000390 2e ea 27 c0 7e f3 40 c0 c0 60 48 c0 1e 7a 00 c0
       -2.6236682 -3.0148616 -3.1309052 -2.0074534
0003a0 2d 77 27 c0 ff be 24 c0 5d df 14 c0 78 0e b2 be
       -2.616649 -2.5741575 -2.326133 -0.34776664
0003b0 1e 83 37 c0 82 cd cf bf 50 8b 3b c0 64 6a 04 c0
       -2.8673778 -1.6234591 -2.930378 -2.0689936
0003c0 0f ab 15 c0 e7 e6 02 c0 09 0d cc 3f 0d db 21 c0
       -2.3385656 -2.0453432 1.5941478 -2.5289948
0003d0 37 d7 e2 bf da 1c 1b c0 e1 c7 1c c0 37 f0 10 c0
       -1.7721928 -2.423636 -2.4496996 -2.2646616
0003e0 51 8d 21 c0 d5 aa 25 c0 4b be 36 c0 08 d7 08 c0
       -2.5242503 -2.5885518 -2.8553646 -2.1381245
0003f0 d5 1b 2b c0 6c 0c 06 3e 88 66 f6 bf a2 82 e3 bf
       -2.6735737 0.13090676 -1.925004 -1.7774241

fc2.weight f4 [300, 404]
000000 fc f5 db bc 39 9d 80 bd 04 51 2a 3b 25 39 4b 3c
       -0.026850693 -0.06279988 0.002598823 0.012403761
000010 07 73 d3 3c 5a ff 52 bd 43 63 ba bd b9 34 3b bd
       0.025811685 -0.051513053 -0.09100964 -0.045704577
000020 18 57 bc 3c 12 c3 b8 bc b3 02 d8 bd ee 0c 9a bd
       0.022990748 -0.022553954 -0.1054739 -0.075219974
000030 7b 7e 37 bd ea 3d f7 ba 3a 8c 98 bd 7d 52 fb bc
       -0.044798356 -0.0018863056 -0.07448621 -0.030678982
000040 6e 97 f9 bb 59 d0 e6 bc 86 61 ed 3b 15 c7 a0 3c
       -0.007616929 -0.02817552 0.0072442917 0.01962618
000050 99 6a 8a bd 7c df 8f 3c 8e ef 0d bd c3 8c bd bc
       -0.06758613 0.01756262 -0.034652285 -0.02313841
000060 14 b0 e3 bc 5f 24 af bd d4 7d 83 3c 28 00 e2 bc
       -0.027793922 -0.08551859 0.01605121 -0.027587965
000070 6f d0 88 bd 6d c2 09 bd 71 71 80 bd 17 3d 75 bd
       -0.066803806 -0.033632684 -0.06271637 -0.059872713
000080 4e ce 39 bd 05 b3 11 bd ca d3 cc bc b6 60 de bc
       -0.045362763 -0.035571117 -0.025003333 -0.027145725
000090 26 e5 15 3d b3 06 96 bd 19 68 d9 bd 69 18 5a bd
       0.036595486 -0.073254965 -0.10615558 -0.053245936
0000a0 99 1d 31 3d 26 74 3f 3d 5c f2 1b bd 87 5e 2d 3c
       0.043241117 0.046741627 -0.03807293 0.010581619
0000b0 5a 49 13 3d e3 ce ce 3b 03 10 b9 3c 5d b4 db 3c
       0.035958625 0.006311284 0.022590643 0.026819402
0000c0 0b 8a 80 3c 4d 94 c9 b9 31 e7 2c 3d 09 75 a7 bd
       0.015690824 -0.000384482 0.04221267 -0.081766196
0000d0 44 ed c8 bd 98 88 b3 bd 3e 6b a7 bc 1e 8e b3 bd
       -0.0981088 -0.087662876 -0.02043688 -0.08767341
0000e0 6b 2c f1 bc b8 4d 46 bd ae b2 de bb f7 07 76 bd
       -0.029440125 -0.048413962 -0.0067962026 -0.06006619
0000f0 35 c7 22 3c d3 4f b4 3c 0a d0 6a bd 74 14 e2 bc
       0.00993519 0.02201072 -0.057327308 -0.027597643
000100 01 ff 06 bd a6 cf 04 bd 1d 96 33 3b 0e d8 cc bd
       -0.032958034 -0.03242459 0.0027402707 -0.10002147
000110 1c b3 68 bd 1d 7a 89 3c 0e 73 1b bd c2 c8 b2 bb
       -0.056811437 0.016781861 -0.03795152 -0.005456061
000120 14 5d 8c bc c3 f8 ef 3b 5a ee 10 3d 35 59 5f bd
       -0.017134227 0.007323356 0.03538356 -0.054528434
000130 f5 bc 93 bc c9 ee b9 bd e8 b6 20 bc e4 27 97 bd
       -0.018034438 -0.09078748 -0.009809233 -0.073806554
000140 c6 8c cd bd a9 18 f1 3a e9 74 81 bd 9b 1c e3 3c
       -0.10036616 0.001839419 -0.06321127 0.027723601
000150 43 91 31 bd c2 88 8c bb ce a9 07 bd f5 55 91 bd
       -0.043351423 -0.0042887637 -0.033120923 -0.07096473
000160 c1 1a 41 3d e2 00 bb 3b dc 27 44 3d 70 35 a7 bd
       0.047144655 0.0057068923 0.047889575 -0.08164489
000170 45 31 5b bd 0c be b2 3b f2 fa 3a 3c ad d6 f2 bc
       -0.053513784 0.0054547843 0.011412369 -0.029643381
000180 03 aa 2e 3d 50 ca ca 3c a8 eb d6 3c 2f a9 a3 bc
       0.042642605 0.024754673 0.026235417 -0.019978134
000190 1c 4c c8 3c 10 cc 00 3c 8c c4 d9 3c bf 39 9f bd
       0.024450354 0.007861152 0.026582979 -0.07774686
0001a0 74 44 5f bd 43 79 6b bd 83 8e d5 bd 27 1e ad bc
       -0.05450864 -0.05748869 -0.104275726 -0.021132542
0001b0 33 2c 06 39 fa 35 78 3b 62 e5 46 3c 05 3b 33 bc
       0.00012795701 0.003787397 0.01213965 -0.010939364
0001c0 45 6e d3 bc da 74 3f bd a1 80 d6 bd 04 65 45 bd
       -0.025809417 -0.046742298 -0.10473753 -0.04819204
0001d0 44 06 37 bd 82 ba 85 bc 23 7b b3 bb dd 01 55 bd
       -0.04468371 -0.016324285 -0.0054773255 -0.05200373
0001e0 29 b7 53 bc a2 27 fb bb d8 15 11 3c 72 5b 57 bd
       -0.012922087 -0.0076646367 0.008855306 -0.052577443
0001f0 3e 0b 77 bd d9 ff 35 bd 34 64 46 bc ac ba 23 bd
       -0.060313456 -0.04443345 -0.012108851 -0.039972946
000200 28 b1 17 bd b7 1d 74 bc 45 6c c4 3c 57 b0 75 3c
       -0.037034184 -0.014899663 0.023977408 0.014995656
000210 c7 55 22 bc 70 97 23 bb 88 4d b8 bd fa c4 65 bd
       -0.009908146 -0.002496209 -0.08999163 -0.056096055
000220 60 ea de bc 97 91 94 bc 2d 68 36 bd ca 3e de 3b
       -0.027211368 -0.018135829 -0.044532944 0.0067823874
000230 7a 6d 0d bd 33 34 15 bd 47 db d5 3c 2e e4 fe bd
       -0.034528233 -0.036426734 0.026105536 -0.124458656
000240 30 cb 02 3d 86 8f f6 3a f4 ab 57 3d 02 f6 9b bd
       0.031932056 0.0018811084 0.05265422 -0.07615282
000250 6e ee a6 bd 31 93 5c bb cd 09 82 bc 52 81 95 bc
       -0.081509456 -0.003365707 -0.015873814 -0.018250141
000260 0c 7d da 3a e1 25 fb bc 17 98 d3 bc 83 4a 0d bd
       0.0016669347 -0.03065771 -0.025829358 -0.034494888
000270 d4 e6 61 bd 71 2b 26 bc 39 6e 9c bd 35 c8 2f bd
       -0.055151775 -0.010142193 -0.07638211 -0.04291554
000280 ae 03 5a bd 49 26 55 bd 99 23 f2 3c 4b 2f c8 3b
       -0.053226165 -0.052038465 0.02955799 0.0061091534
000290 08 aa ae bd 7d 5c fc bc 08 36 61 bc 5e 04 a0 bd
       -0.08528525 -0.03080582 -0.013745792 -0.07813333
0002a0 f2 a2 01 3d 05 71 15 bd c5 2b d6 bc b4 a3 fb bc
       0.031649537 -0.036484737 -0.026143918 -0.030717708
0002b0 5f e1 79 bd bc 53 e6 bc 5a 96 9b bd de 98 ca bb
       -0.061005946 -0.0281161 -0.07597037 -0.006182774
0002c0 05 ad b2 bd 93 b2 11 bd 8b ae 48 bd 2e 16 4e 3c
       -0.08724407 -0.035570692 -0.048994582 0.01257853
0002d0 05 bb e5 3c af 8c 2a bd 29 02 08 bc f3 a2 d3 3b
       0.02804328 -0.041638073 -0.008301296 0.006458634
0002e0 cc 72 50 bb b8 c9 a0 bd 6d da 5c 3c 0f 72 8c bd
       -0.0031806706 -0.07850975 0.013479811 -0.068576925
0002f0 0a 66 59 bc 5d 99 ac bd cc f1 b7 bc fd 72 a6 bd
       -0.013268957 -0.08427689 -0.022454165 -0.08127401
000300 ec 5b 83 bd b0 28 58 bd bf 10 78 bd c7 18 c4 bb
       -0.06414017 -0.052773178 -0.060562845 -0.005984399
000310 79 79 15 bd a2 37 27 bd 9b 33 9b bc f5 86 35 3d
       -0.0364928 -0.04082454 -0.018945506 0.04431816
000320 d9 53 e0 3c f4 b8 b0 bc 09 4b 69 3b fa 53 d7 3c
       0.027383732 -0.021572568 0.0035597703 0.02628516
000330 80 c9 b0 bd 34 65 0d bd df 89 52 3c 0a b5 77 3b
       -0.08632183 -0.034520343 0.012850254 0.0037797117
000340 43 e7 30 bd 52 15 a9 bd 9e 1f 16 bd 58 6a bb bd
       -0.0431893 -0.0825602 -0.036651246 -0.09151143
000350 c8 27 75 bd a4 e3 0e 38 76 ea 50 bd c3 48 69 bd
       -0.05985239 3.4067445e-05 -0.05100485 -0.056954157
000360 8e 6f 61 bd 54 74 64 bd f2 a1 76 bd af 34 87 3c
       -0.055038027 -0.055775 -0.060213037 0.016504614
000370 e7 78 c1 3c 0f 21 2f bd 34 43 88 bd 30 37 78 bd
       0.023617221 -0.042756137 -0.06653443 -0.060599506
000380 93 a9 0c bc 79 71 4f bd 2d f8 93 bd f1 d4 93 bd
       -0.0085853515 -0.050645325 -0.0722507 -0.0721835
000390 22 50 7f 39 21 c4 02 bc 8f 0f 83 bd 58 d2 d9 bd
       0.00024348547 -0.007981331 -0.06399452 -0.10635823
0003a0 a6 c7 c1 bc 75 f9 41 3c 51 4c 40 bd b2 c3 03 bd
       -0.02365477 0.01183926 -0.04694778 -0.03216905
0003b0 b1 4b 45 bc 5b 46 35 bd 6f 37 66 bd ca f8 c7 bb
       -0.012041972 -0.04425655 -0.05620521 -0.006102656
0003c0 e3 01 21 bd 35 f7 ba bc f5 07 47 3b 8b c3 59 bc
       -0.03930844 -0.022822956 0.0030369733 -0.01329125
0003d0 7d 10 fb 3a 59 65 4d bc d3 2c 72 3c 30 d9 bb bd
       0.0019154694 -0.01253637 0.014781195 -0.091722846
0003e0 38 ee b6 bc 5e d9 85 bd 28 4c 00 3d 45 c5 13 3d
       -0.022330388 -0.065356 0.03132263 0.036076803
0003f0 41 dc 21 bc 17 fc 19 bd 27 4e 2d bd 71 9f b3 bc
       -0.009879173 -0.037593927 -0.04231086 -0.021926614

fc2.bias f4 [300]
000000 98 b5 2e bd 6a 4a f2 bc 46 c8 87 bd 41 f9 e0 bd
       -0.04265365 -0.029576499 -0.06629996 -0.109850414
000010 15 7e 14 bd b4 09 92 3f 63 66 13 bd 1e 82 df bd
       -0.036253054 1.1409211 -0.035986315 -0.1091349
000020 ea 01 c1 bd 80 82 23 bc c5 f6 57 bd eb c2 57 bd
       -0.09424193 -0.009979844 -0.052725572 -0.052676123
000030 f6 7e a3 bd d3 ed db bc 65 a0 b4 bd 55 80 8e bd
       -0.079832 -0.026846802 -0.08819655 -0.06958071
000040 11 ce 54 3c 2c 10 01 be b2 59 0c be 99 5d e1 bd
       0.012988583 -0.12603825 -0.13706091 -0.110041805
000050 2e c3 10 40 47 2a 07 be 77 af ca bd f0 33 a4 bd
       2.2619128 -0.13199721 -0.098967485 -0.08017719
000060 6c a9 b2 bc d7 e8 95 bd 03 fb e8 bd e8 b6 8d bc
       -0.021809302 -0.07319801 -0.11376002 -0.01729913
000070 59 27 fb bd 0a 8b dd bd 16 2a cb bd cb 98 f1 bc
       -0.12263364 -0.10817535 -0.09920137 -0.029491803
000080 7f 4a a0 bd f7 b9 d2 bd 68 f9 9a bd 41 5f e4 bc
       -0.07826709 -0.10289376 -0.07567102 -0.027877452
000090 ef 3d dc bd 4a 90 0f be 8e 6a f9 bd 62 3e 93 bd
       -0.107540004 -0.14019886 -0.12178527 -0.07189633
0000a0 7c ad 3a bd c4 84 ea bd 73 d2 46 bd 60 ac 48 bd
       -0.045575604 -0.11451104 -0.048540544 -0.048992515
0000b0 5d fa aa bd 6f ae ba bd 53 0e ee bd 05 99 df bd
       -0.08348534 -0.09115302 -0.11623826 -0.10917858
0000c0 a5 82 b3 bd 24 5b b2 bd 56 01 aa bd 77 d3 50 bd
       -0.08765153 -0.0870879 -0.08301036 -0.05098292
0000d0 72 c3 02 be 25 ac 75 bd 09 4e 15 40 6e 89 ae bd
       -0.12769869 -0.059978623 2.332888 -0.085223064
0000e0 02 0b 31 bd 4c 5c ba bd 29 23 95 bd 50 fb 85 bd
       -0.04322339 -0.090996355 -0.07282097 -0.06542075
0000f0 2d 70 c6 bd 98 b9 c3 bd 85 11 a6 3c 4d cd 9a 3f
       -0.096893646 -0.095568836 0.020272026 1.2093903
000100 28 10 98 3f 58 07 da bd e0 18 d3 bd 7b f5 93 bd
       1.187993 -0.10645932 -0.10307479 -0.07224556
000110 e4 9c 30 bd ff 70 24 40 0a c7 a3 bd 2e 51 8a bd
       -0.043118373 2.5693967 -0.07996948 -0.06753765
000120 bd dc d9 bd e5 98 f6 bd fa 7b 89 bd ff 69 e4 3f
       -0.106378056 -0.12040881 -0.067131 1.7844847
000130 9a 16 4f 3e fb 2b 3e be 8f e4 ff bd 0e cf d3 bd
       0.20223466 -0.18571465 -0.12494766 -0.10342227
000140 d2 eb f9 bd 58 f4 c2 bd 75 0e d6 bd 4a 3e fe bd
       -0.12203182 -0.09519261 -0.10451976 -0.124142244
000150 44 85 d8 bd b0 cd 9a bd f2 65 04 be 2c 0c a1 bd
       -0.105722934 -0.07558763 -0.12929514 -0.0786365
000160 06 8e c8 bc e2 3d ae bd e7 d9 de bc dd c9 3c be
       -0.024481785 -0.08507897 -0.027203513 -0.1843638
000170 5f 98 d8 bd b8 5d 9c bd 38 8d be bd 82 9b c2 bd
       -0.105759375 -0.07635063 -0.09304279 -0.09502317
000180 3b f4 d5 bc f3 60 b9 bd b5 6f 90 3e 0e 54 44 bd
       -0.026117435 -0.09051695 0.28210226 -0.047931723
000190 5e ee 88 bd c8 46 cc bd 11 94 1d be 30 6f e3 bd
       -0.0668609 -0.09974438 -0.15388514 -0.11105192
0001a0 03 80 ba bd 38 fc 58 bd 0c 82 f2 3e 27 1b ad bd
       -0.091064475 -0.05297491 0.47364843 -0.084524445
0001b0 69 2a c3 bd d5 6d 59 bd 4c 64 c1 bc c5 e5 3b bd
       -0.095295735 -0.05308326 -0.023607396 -0.045873422
0001c0 32 f0 84 bc 21 4b 10 bd 82 a2 91 bd 3c bb 0c bb
       -0.016227815 -0.0352279 -0.07111074 -0.0021473905
0001d0 7c cc ff bd 8f e9 59 bd 71 1e 0c bd 08 2d 8f bd
       -0.12490174 -0.053201254 -0.03420872 -0.06991011
0001e0 ef 81 f7 bd ca 62 04 be 42 e4 6c bd 8b 96 c9 bd
       -0.1208533 -0.1292831 -0.05783487 -0.09843167
0001f0 7d 68 85 3a e2 f6 08 be ce 6c d6 bd bb 42 8d bd
       0.0010178235 -0.13375428 -0.104699716 -0.068974935
000200 75 11 1d be 07 c3 3c bd d8 41 01 be cd 24 b5 be
       -0.1533869 -0.04608443 -0.12622774 -0.3537964
000210 2b ed a3 bd b9 89 46 bf 82 09 01 be 79 1b 43 bd
       -0.080042206 -0.775539 -0.12601283 -0.04763362
000220 6d af 74 bd 62 32 22 be 24 e6 72 bd e3 df ac bd
       -0.05973761 -0.15839532 -0.05930151 -0.084411405
000230 94 4a fa bd 3e 23 bf bd 0e 73 70 bd 65 a2 83 bd
       -0.12221256 -0.09332894 -0.058703475 -0.06427459
000240 48 54 74 bd b9 0e 1d 3f 41 68 c8 bd e2 ba a3 bc
       -0.05965069 0.6135059 -0.0978551 -0.019986574
000250 50 59 a3 be f6 fc 98 bc 0b 3d 4f bf 84 67 ae bc
       -0.31904078 -0.018675309 -0.8095252 -0.021289594
000260 de c6 ad bd 31 8a bd bd 16 9b c2 bd 8b 71 fa bd
       -0.084851965 -0.092548735 -0.095022365 -0.12228688
000270 70 d9 06 be 6e 52 e2 bd b8 7b 74 bd c8 78 1a bd
       -0.13168883 -0.110508785 -0.0596883 -0.037712842
000280 f8 bc 0d be 1b 38 98 bd d1 ce 66 3e eb 48 80 bd
       -0.13841617 -0.07432576 0.22539832 -0.06263908
000290 d3 da a7 bd a3 88 d1 bd 29 35 1e bd a1 9e 05 bd
       -0.08196034 -0.102311395 -0.038624916 -0.032621983
0002a0 43 e8 f8 bb bf 6b e6 bc e9 c1 8e bc c5 69 a1 bd
       -0.007596047 -0.02812755 -0.017426448 -0.07881502
0002b0 5f 69 f9 ba 16 86 e0 bd 28 b0 cb bc 8e 9d ad bd
       -0.0019028595 -0.10963075 -0.024864271 -0.08477317
0002c0 d2 17 b1 bd 28 4f 91 bd f9 b0 23 be 01 68 f1 bd
       -0.086471215 -0.07095176 -0.15985478 -0.11787415
0002d0 16 1d ba bd 1f b9 f8 bd 37 6d 83 bd 85 52 5d be
       -0.09087579 -0.12144684 -0.064173155 -0.2161351
0002e0 a5 5d 1e be f5 bb cc bd cb 1a d0 bd 8f 32 04 be
       -0.1546541 -0.099967875 -0.1016136 -0.12909912
0002f0 1d 27 6d bd 98 32 96 bd 56 17 ce bd 62 24 91 bb
       -0.05789863 -0.07333869 -0.10063045 -0.004429386
000300 11 93 f9 bd 3e ef 1f 3d 14 ca 86 bd 64 43 86 bd
       -0.12186254 0.03904652 -0.06581512 -0.065558225
000310 1c 21 4e bd 33 d4 22 bd d8 c1 c0 bc fc 83 c0 bc
       -0.050324544 -0.03975315 -0.023529932 -0.023500435
000320 dd e6 e3 3b 7f 40 37 bd ce d3 5b bd f5 e8 a8 bd
       0.0069550113 -0.044739243 -0.05366879 -0.08247558
000330 66 e9 67 bd 81 c5 bc bd 9d f4 95 bd e0 97 e6 bd
       -0.05661907 -0.092173584 -0.07322047 -0.112594366
000340 3a d4 ea bc 91 cb fb bc 95 da a2 bc 15 0b a1 bd
       -0.02866565 -0.030736716 -0.019879619 -0.07863442
000350 2d eb 1a bd 0f f9 fb bc 25 59 b1 bd 5e 5f eb bd
       -0.037821937 -0.030758409 -0.08659581 -0.11492799
000360 2a cf 01 be 1c 3a d8 be 50 2f 7f bd e3 dc c2 bd
       -0.12676683 -0.42231834 -0.06230098 -0.09514787
000370 21 a7 8c bd bd e7 c9 bf bf 0e 2c bd 4c 94 00 be
       -0.06867815 -1.5773846 -0.04200625 -0.12556571
000380 39 20 84 bd cc 99 18 be a2 90 c3 bd b5 4a 07 be
       -0.064514585 -0.14902419 -0.09549071 -0.13212092
000390 d5 fa ad bd ff 22 d2 bd e7 66 d1 bd 30 19 70 bd
       -0.08495108 -0.10260581 -0.10224705 -0.05861777
0003a0 5d b4 23 be e9 8a 1c bc a4 de c2 bd f4 81 d7 bc
       -0.15986772 -0.009554603 -0.095151216 -0.026307084
0003b0 d6 f5 bd bd db b7 6e bd 80 9c 89 bd 98 f3 da bd
       -0.09275405 -0.058280807 -0.06719303 -0.10690993
0003c0 cc b3 86 bd 65 3f bb bd 98 69 26 be d3 82 bb bd
       -0.06577262 -0.09142951 -0.16251218 -0.09155812
0003d0 32 6c 17 be eb 9f ab bc d1 d1 1a be a2 34 2b be
       -0.14787367 -0.020950278 -0.15119101 -0.16719297
0003e0 fb 8b 12 bc 3f 18 7c bd 49 34 f8 bd b2 9b 99 bd
       -0.008944507 -0.06154656 -0.121193476 -0.075004
0003f0 9d 51 d3 bd 10 b4 3f bd 3f e4 2c bd 81 80 f9 bd
       -0.10318301 -0.04680258 -0.04220986 -0.12182713

fc3.weight f4 [1, 300]
000000 8a 77 05 bc 25 5c c3 bc ce 83 49 3c db 47 8f 3c
       -0.008146176 -0.023847649 0.012299491 0.017490318
000010 ae f7 d4 ba 52 67 2f 39 f0 f3 0d 3a f9 e3 c0 ba
       -0.0016248131 0.0001672779 0.00054150727 -0.0014716379
000020 5f 83 bb bc 1d 30 24 3c cf c5 16 bc ba 9e 43 3b
       -0.022889791 0.010021237 -0.009202435 0.0029849247
000030 3f d8 cc bb d9 cd 06 3b f6 62 7e bc 91 94 ed 3b
       -0.0062513645 0.0020569472 -0.015526524 0.0072503765
000040 d4 4f d7 bc 01 29 aa 3c 7b 0f 71 bc 67 e3 ee bc
       -0.026283182 0.020771505 -0.0147131635 -0.029161168
000050 ca 3e c4 3c 8f 94 27 bc d2 16 76 3b d1 b8 2a bb
       0.023955721 -0.01022829 0.0037550223 -0.00260501
000060 4d f3 ba 39 ae 4b e3 3c c4 e0 c2 3c da c8 8a 3b
       0.00035657958 0.027746048 0.023788817 0.004235369
000070 fa 63 0d bc d7 d3 c6 3c a9 fb a9 3c bf e8 9b 3c
       -0.008629793 0.024270935 0.020749884 0.01903188
000080 30 4d af bc 3f 95 aa 3c a9 25 ec 3b 8d 3e aa 3b
       -0.02139911 0.02082312 0.007206638 0.005195445
000090 11 ae 96 bb 4b b9 8a 3c 66 71 a2 bc 0f f7 44 3c
       -0.004598387 0.016934058 -0.019829463 0.012021794
0000a0 f9 ef 13 3c 16 38 f2 3c 28 a6 89 bc f5 a1 89 bc
       0.009029382 0.02956776 -0.016802862 -0.01680086
0000b0 f6 3c e1 bb ec 40 b4 3a 6c de e3 3c 42 dd 3d bc
       -0.006873722 0.0013752258 0.02781602 -0.0115883965
0000c0 d6 88 39 3c 16 e2 92 3c 82 48 0f bd e5 8c 99 3c
       0.011324128 0.017930072 -0.03498126 0.018743942
0000d0 95 b7 d3 bc db e3 c6 bc 4f 57 51 3d 82 3e 20 bc
       -0.025844375 -0.024278572 0.051108655 -0.009780528
0000e0 37 85 fe b9 cc cf c4 3c d2 e8 86 bc 0e 5f d6 3c
       -0.00048545908 0.024024867 -0.01646844 0.026168372
0000f0 9b 4e 77 bc 91 df 84 3c 57 c9 af 3b b8 2b 06 bc
       -0.015094425 0.016219886 0.0053645778 -0.008189134
000100 57 18 2e 3c f0 5e 99 3a 9c de dd 3c c5 bb 5e bc
       0.01062592 0.0011701267 0.027083687 -0.013594572
000110 2d d6 81 3b d6 98 14 3d 57 6a 3a bc 00 f9 5c ba
       0.0039622993 0.03627857 -0.011377892 -0.0008429438
000120 95 41 49 bc 26 c5 b8 3c 2f d2 93 3c 0a 66 a2 3c
       -0.012283702 0.022554945 0.01804456 0.019824047
000130 65 b3 e8 bc 8b 80 84 3c c2 07 c5 3c 3e 98 fd 3c
       -0.028405854 0.016174575 0.02405155 0.030956384
000140 5b e1 3d bb 89 9f a7 3b ec 6f 18 bd b0 10 36 3c
       -0.0028973434 0.0051154536 -0.037216112 0.011112377
000150 44 f0 5c 3c 24 d0 b7 bc 98 bf 4d bb 95 c8 6b 3c
       0.013485018 -0.022438116 -0.0031394716 0.014391084
000160 76 42 8c 3b b4 01 28 3c ba ae f9 bc 56 84 f8 3a
       0.0042803837 0.010254312 -0.030478824 0.0018960338
000170 5d 0a 90 3c 7b 2a 4f 3b 17 b5 d4 bc 74 e4 05 3a
       0.017583067 0.0031611014 -0.025965257 0.00051075895
000180 9e a3 8f 3c 5a 83 55 ba 02 40 cf 3a 62 da 2d 3c
       0.017534073 -0.0008144878 0.0015811922 0.010611149
000190 04 5a 84 3c 07 88 2f 39 b6 5e 96 3c 58 ce 86 3c
       0.016156204 0.00016739975 0.018355709 0.016455814
0001a0 da b4 5c 3c 28 5b af 3c 13 48 37 3c 76 76 94 bb
       0.013470853 0.021405771 0.011186617 -0.004530723
0001b0 8c 63 cf 3b c8 ec aa bc 20 4e ed bb eb 4b ae 3c
       0.0063290056 -0.02086486 -0.0072419792 0.021276435
0001c0 3a 31 c8 bc 66 7d ad 3c e9 4a aa 3c 6d 7a 8b 3c
       -0.024437536 0.021177959 0.020787673 0.01702615
0001d0 7c 7a c3 3c a6 d0 2e bc 48 93 51 ba 5b bf 25 3b
       0.023862116 -0.010669863 -0.0007994664 0.0025291059
0001e0 3c 55 4a 3c 35 51 dc bc c1 8e c9 bc 11 cd 01 3c
       0.012349423 -0.026894191 -0.024604203 0.007922427
0001f0 0f 9c 6c 3c 50 3d 16 3c f3 37 97 bb 94 4b 36 bc
       0.014441504 0.0091698915 -0.004614824 -0.011126418
000200 b5 15 7f bc a0 fa 43 3b 5a 58 aa bb 6b 4c fd bc
       -0.01556914 0.0029904023 -0.0051985206 -0.030920228
000210 01 2d 3c ba ac c7 d4 3c 01 2d 8d bc 30 53 1b bc
       -0.0007178337 0.025974117 -0.017233374 -0.009480283
000220 d1 fb 76 bb 8f a7 7e 3c de d5 95 b9 e8 1c a9 3c
       -0.0037686715 0.015542879 -0.00028578838 0.020643666
000230 01 17 f9 bb 4a fa b8 3c 1d 2e a0 bc 78 0d 52 3c
       -0.007601619 0.022580285 -0.019553239 0.012820594
000240 8a f2 a9 bc af b6 25 bd 2a e9 9e 3b 06 96 23 bc
       -0.020745534 -0.040457424 0.0048495727 -0.009984499
000250 bf 70 af bc 9f 5a 34 3b 54 ac a9 bc 43 d1 05 bc
       -0.021416066 0.0027519835 -0.020712055 -0.008167568
000260 75 a1 05 bc 3a d6 a8 bc ac 89 01 3c 31 25 90 bc
       -0.00815617 -0.020609964 0.007906359 -0.01759586
000270 47 a8 ce bb b0 d4 91 bc 6b 45 72 bc 06 a0 98 bc
       -0.0063066813 -0.017801613 -0.014787058 -0.018630993
000280 81 5e c9 bb 69 a3 cd 3c 98 bc db bc 69 69 13 3c
       -0.006145299 0.025102334 -0.026823327 0.0089973
000290 b7 d8 ac bc ef da 94 bb d0 94 f9 bc ff 48 b4 bc
       -0.021099431 -0.0045427005 -0.030466467 -0.022007463
0002a0 4e 7e f5 b9 c7 46 b1 ba 72 b3 c7 3c 97 9d 7a bc
       -0.00046824146 -0.0013525122 0.024377558 -0.015296361
0002b0 e4 b2 9e ba 98 a3 f0 ba 65 96 ca bc a2 87 08 bc
       -0.0012107757 -0.0018359302 -0.024729917 -0.008333119
0002c0 b9 5a 1f b9 85 58 61 bc 7f 57 7a 3c c1 a5 92 bb
       -0.00015197218 -0.013754015 0.01527965 -0.004475326
0002d0 1c 22 da bc 1d b6 f2 3b dc 72 0e 3c de 2e ac bc
       -0.026627593 0.0074069635 0.008694377 -0.021018442
0002e0 e9 ed 84 3c bf d8 33 bc 00 5c 00 bd 13 42 99 3c
       0.016226726 -0.010976969 -0.031337738 0.018708264
0002f0 c9 db 87 bc c5 56 a4 3b dd d2 b6 3c 2d df 97 bb
       -0.016584294 0.0050152265 0.022317344 -0.004634759
000300 d0 45 b1 3b e7 b0 60 3c 44 33 41 3b 75 5a db 3b
       0.0054099336 0.013714052 0.002948002 0.006694133
000310 cd 55 56 3c 6f 07 ac bc 4e 90 0f bc 23 b8 cc 3c
       0.01308198 -0.020999638 -0.008762432 0.024990147
000320 98 3d 2a bb 54 72 c0 3b f4 5f 5d bc e7 b7 f1 bc
       -0.0025976654 0.005873004 -0.013511647 -0.029506637
000330 dd 6b cc bc 04 57 6c 3c 4f b9 de 3b 4d 16 61 bc
       -0.024953777 0.014425043 0.006796993 -0.013738227
000340 0e e7 9f 3c 1c 75 e3 3b c6 ec f7 3c d4 a5 b8 bc
       0.019519355 0.0069414508 0.03026427 -0.02254001
000350 02 ca bd bc 1e 71 86 3a 1a e1 6f bc 96 40 b8 bc
       -0.023167614 0.00102571 -0.014641071 -0.022491734
000360 4b e5 82 3c 1d d6 fa bc f8 68 10 3c 33 3e 84 3c
       0.015978476 -0.030619675 0.008814089 0.01614294
000370 50 fe f7 bb 25 be b7 bc eb fd c2 3b 92 87 d1 bc
       -0.007568158 -0.022429535 0.0059506795 -0.02557734
000380 b3 45 fd bb ef ff 9f 3c fb 70 5d bb d9 ee 12 bc
       -0.007729256 0.019531218 -0.0033789265 -0.0089680785
000390 03 7a 77 bc 67 6a c9 39 31 a6 9f bc 13 35 a1 bc
       -0.015104773 0.00038416983 -0.019488426 -0.019678628
0003a0 6a 29 f6 bb b6 85 57 3c 9a b3 dd 3b 85 dd a1 bc
       -0.007512261 0.013154438 0.006765795 -0.019758949
0003b0 2e c1 54 3c 2f 75 3f 3c 39 eb 5f bc df 6b ab bc
       0.012985511 0.011685654 -0.013666921 -0.02092546
0003c0 61 eb 75 bc e6 0a 67 bc 5a 91 b1 3c f4 1e ad 3c
       -0.015009732 -0.0141017195 0.021675754 0.021132924
0003d0 c0 ef 78 bc e1 80 38 3c a6 f7 d3 bc ae 0d 6a bc
       -0.01519388 0.011261196 -0.025874924 -0.014285488
0003e0 63 93 35 3c 44 5e f4 bc be 28 06 3c db 2f 8c bc
       0.011082503 -0.029830106 0.008188425 -0.017112663
0003f0 18 a0 3b 3c 0e 5e e0 bc 73 60 b8 bb 8c 48 14 bc
       0.011451744 -0.027388599 -0.005626732 -0.0090505
